checkpoint_critic.pth (torch_old, 89519 bytes, 9 tensors)

fcs1.weight f4 [128, 33]
0.13675164 -0.020766016 0.16119938 0.33754584 0.06374738 -0.16325384 0.024054028 -0.05061943
-0.017512256 0.117172934 0.019906977 0.056239568 0.031080123 -0.07083436 0.26818037 0.060345013
0.17002857 -0.035945248 -0.20245941 -0.1170616 0.0276064 0.021043116 -0.045730032 -0.016163584
0.073938236 -0.053000644 -0.10639884 -0.21754564 -0.12189129 -0.06444198 0.20643435 -0.08335498
-0.12471577 0.00064331206 0.05605933 -0.009828173 0.19511192 -0.06520122 -0.23924434 0.2185673
0.14368442 0.06763375 -0.0943182 -0.07355476 0.029641403 -0.062454313 -0.2071975 0.04946931
-0.034546766 -0.048118457 -0.29538792 -0.05057729 0.3388137 -0.063268356 0.050337452 -0.041353785
-0.13961153 0.038134117 -0.029530818 0.0068298564 -0.022405837 -0.043473776 0.055142753 -0.0844265
0.026599526 0.5896682 -0.23239191 0.03508597 0.092342444 -0.057084233 0.07358353 0.16368261
0.00059436995 -0.02046515 -0.029073995 -0.07483657 -0.028678128 -0.027965054 -0.023995142 0.16991454
-0.056201167 -0.06386896 0.40796432 0.25436687 0.0021375932 -0.2646886 -0.00047670383 -0.017012974
0.06787542 -0.008221758 0.033944566 0.0039257156 -0.16243684 0.15888818 0.042996578 0.08265329
-0.20187743 -0.053246725 0.18474722 -0.075208105 -0.07219851 -0.011036547 -0.027654156 0.28765076
0.119502395 -0.46341398 -0.0026327032 0.18953551 0.052763186 -0.06516638 0.017865388 0.035712127
-0.10294087 0.039121203 0.030891545 -0.19720706 0.06831726 0.07255553 -0.11561418 -0.01994296
-0.023136837 -0.02535088 -0.022775033 0.010803898 0.10000176 0.09969102 0.19219992 0.09139313
0.013282165 -0.09939787 -0.03621019 -0.547571 0.20207769 -0.06341217 -0.1118963 0.29011703
0.125549 0.0067411596 -0.08563532 0.022823952 0.011318772 0.0323336 0.03476453 -0.00972727
0.03989879 -0.14342187 0.0013418407 0.10409519 0.022289865 0.21122888 0.012336778 -0.17805555
-0.008569309 -0.001679716 -0.05764677 -0.07410247 -0.018459722 0.00631844 -0.013610629 0.29141438
0.049199805 -0.03885873 -0.16292985 0.04076057 0.55737925 -0.19045016 0.14112064 -0.20726494
0.009889495 0.09137993 -0.21093743 0.5626671 -0.091995575 -0.015469083 0.06375448 0.009210571
0.022240018 -0.049133535 0.08102979 -0.08914292 0.019451547 0.091036126 0.30964333 0.014988015
0.3764839 -0.017313628 -0.0061746677 -0.011778272 -0.032455977 -0.0062861284 0.08860135 0.0355747
0.0044142 0.15520705 -0.08808627 0.023884047 0.037365563 -0.22806971 -0.032084364 0.10102122
-0.01215416 0.16481929 -0.18067265 0.06989196 0.3771864 0.032524753 0.046567235 0.065340556
-0.049380537 0.0371827 -0.030957034 -0.02711516 -0.1190956 -0.024185916 -0.09171074 -0.24642985
0.18348129 -0.1288471 -0.015238695 -0.012235073 -0.025057277 -0.06504033 -0.040374383 -0.07448999
0.04162937 0.2275852 0.026077058 -0.072922185 -0.28565884 -0.06911756 0.72027266 0.14201142
-0.13980034 -0.16509394 -0.0018532473 0.27508712 -0.08843031 0.16359514 -0.11417138 0.109332465
-0.0026464113 -0.0031103003 -0.054808173 0.007239173 0.02056518 0.09249694 -0.0772628 -0.051863387
0.072115965 -0.21415722 -0.12455926 0.073554695 -0.009390701 0.013692246 -0.11964622 -0.01366038
00000000: 9f08 0c3e 7e1d aabc 7311 253e cfd2 ac3e
00000010: fd8d 823d 042c 27be f40c c53c 5256 4fbd
00000020: dd75 8fbc 5df8 ef3d f513 a33c 765b 663d
00000030: be9b fe3c 9b11 91bd f04e 893e 552c 773d
00000040: f81b 2e3e 533b 13bd 8551 4fbe febd efbd
00000050: d126 e23c 9d62 ac3c 6a4f 3bbd 7e69 84bc
00000060: ee6c 973d 3417 59bd a3e7 d9bd 49c4 5ebe
00000070: 24a2 f9bd 28fa 83bd 8763 533e 04b6 aabd
00000080: fb6a ffbd f1a3 283a 789e 653d 5806 21bc
00000090: 6bcb 473e 3888 85bd 78fc 74be 1bd0 5f3e
000000a0: 0222 133e 9083 8a3d e729 c1bd e1a3 96bd
000000b0: 87d2 f23c 18d0 7fbd 952b 54be 55a0 4a3d
000000c0: e980 0dbd dc17 45bd 163d 97be 222a 4fbd
000000d0: fd78 ad3e d792 81bd a52e 4e3d 9662 29bd
000000e0: 53f6 0ebe 8532 1c3d 9dea f1bc fdcc df3b
000000f0: 728c b7bc 8f11 32bd 5edd 613d cde7 acbd
00000100: 40e7 d93c 7ff4 163f 25f8 6dbe 4eb6 0f3d
00000110: 091e bd3d 28d1 69bd f6b2 963d 6a9c 273e
00000120: 7ecf 1b3a 88a6 a7bc 962c eebc ea43 99bd
00000130: 65ee eabc f816 e5bc 7691 c4bc 14fe 2d3e
00000140: 3233 66bd bbcd 82bd b3e0 d03e 603c 823e
00000150: dd16 0c3b 4485 87be 1bee f9b9 cb5e 8bbc
00000160: 4502 8b3d 8db4 06bc 7509 0b3d 4aa3 803b
00000170: d855 26be 95b3 223e 2e1d 303d 2146 a93d
00000180: f5b8 4ebe 3d19 5abd 602e 3d3e b506 9abd
00000190: d0dc 93bd a2d2 34bc f88a e2bc f646 933e
000001a0: acbd f43d 9944 edbe 6e89 2cbb 9915 423e
000001b0: 361e 583d f375 85bd 6f5a 923c e146 123d
000001c0: aad2 d2bd 8e3d 203d 4410 fd3c a6f0 49be
000001d0: ebe9 8b3d fe97 943d 21c7 ecbd 6b5f a3bc
000001e0: 7789 bdbc a6ac cfbc b592 babc d502 313c
000001f0: b9cd cc3d ce2a cc3d 0ed0 443e 522c bb3d
00000200: 709d 593c 1c91 cbbd 2351 14bd 9d2d 0cbf
00000210: 74ed 4e3e 3dde 81bd e329 e5bd 388a 943e
00000220: eb8f 003e f2e4 dc3b 9261 afbd 4cf9 ba3c
00000230: 5f72 393c 3d70 043d 4065 0e3d 215f 1fbc
00000240: ea6c 233d 2fdd 12be b4e0 af3a dc2f d53d
00000250: 3c99 b63c 624c 583e 3320 4a3c 3254 36be
00000260: 4966 0cbc eb29 dcba 051f 6cbd 09c3 97bd
00000270: d838 97bc eb0a cf3b 1eff 5ebc 4434 953e
00000280: bc85 493d 552a 1fbd 15d7 26be 8ef4 263d
00000290: 68b0 0e3f 5e05 43be ee81 103e 433d 54be
000002a0: 8c07 223c 6725 bb3d fbff 57be f30a 103f
000002b0: 2d68 bcbd 0972 7dbc b591 823d efe7 163c
000002c0: b330 b63c 3f40 49bd f2f2 a53d 9090 b6bd
000002d0: da58 9f3c 2671 ba3d 9289 9e3e 4b90 753c
000002e0: 7fc2 c03e 4fd5 8dbc de54 cabb a7f9 40bc
000002f0: 8ff0 04bd defb cdbb a074 b53d c7b6 113d
00000300: fea4 903b 99ee 1e3e 9366 b4bd 7aa8 c33c
00000310: a20c 193d 1b8b 69be e56a 03bd 37e4 ce3d
00000320: 3e22 47bc 63c6 283e 4002 39be 8423 8f3d
00000330: 931e c13e ad38 053d 49bd 3e3d 45d1 853d
00000340: 3f43 4abd e34c 183d 9b99 fdbc 9d20 debc
00000350: 65e8 f3bd 8b21 c6bc d7d2 bbbd 1b58 7cbe
00000360: 85e2 3b3e 7ff0 03be b8ab 79bc 9e75 48bc
00000370: eb44 cdbc dd33 85bd 9c5f 25bd 358e 98bd
00000380: 8f83 2a3d 180c 693e 8e9f d53c 3a58 95bd
00000390: e041 92be 828d 8dbd ca63 383f 716b 113e
000003a0: d227 0fbe 630e 29be a9e8 f2ba 38d8 8c3e
000003b0: f31a b5bd 7c85 273e afd2 e9bd b3e9 df3d
000003c0: 6a6f 2dbb 2ed6 4bbb 897e 60bd 9636 ed3b
000003d0: 4f78 a83c 096f bd3d f53b 9ebd b46e 54bd
000003e0: 89b1 933d 084c 5bbe ed18 ffbd d8a3 963d
000003f0: 74db 19bc 7155 603c 1409 f5bd c9cf 5fbc

fcs1.bias f4 [128]
0.11903077 -0.14821377 -0.0040300456 -0.11210979 -0.21416587 -0.21791644 -0.079293706 -0.069313206
-0.03584963 -0.3331781 -0.16356835 -0.010249087 -0.050493177 0.026265966 0.019701356 -0.28535527
0.15240091 -0.114575446 -0.098052815 -0.026994158 -0.10781723 -0.3349153 0.2203724 -0.115123175
0.1295808 -0.11921091 -0.017957956 0.01328208 -0.1251155 0.05513205 -0.12657997 -0.101217784
-0.034615725 0.13691583 -0.07582564 0.12782012 0.0036978293 -0.096787 -0.2779695 0.018097073
-0.01640606 -0.077591345 -0.23887868 0.0038418986 -0.36532953 0.091964565 0.14661328 -0.15245914
-0.23752175 -0.08703288 -0.13633685 -0.22973453 0.041717295 -0.2930261 0.14120701 0.020213168
-0.11987444 -0.23314308 0.028338034 -0.15926233 0.043420568 0.035133153 -0.068089634 -0.034341287
-0.0002374113 0.17014149 -0.034284282 0.14420524 0.10512872 -0.17938058 0.10928666 -0.30115128
0.0504187 -0.10744728 -0.14214237 -0.22304891 -0.10557261 -0.116162635 -0.15812352 -0.042338252
-0.22661133 0.09958668 0.18824637 -0.25588554 -0.16565661 -0.30045533 -0.05821104 -0.11652374
0.0692506 -0.06693867 -0.11828764 -0.08155846 -0.19471781 0.12835085 0.0803984 -0.08371547
0.12812611 -0.04024446 0.056253083 -0.04597831 -0.095083594 0.05517672 -0.20203395 -0.054763746
0.07667214 -0.11918236 -0.2920911 -0.2265427 -0.16628681 -0.06299952 -0.24553259 -0.13439876
-0.3169871 -0.13093562 -0.20306845 -0.062017825 0.021891687 0.12531641 -0.051372994 -0.11240599
-0.02192199 -0.048393253 -0.221914 0.046652373 -0.15072463 0.042377736 -0.06332906 -0.12604906
00000000: 68c6 f33d 5ac5 17be 790e 84bb d199 e5bd
00000010: 4c4e 5bbe 7d25 5fbe bd64 a2bd 15f4 8dbd
00000020: 10d7 12bd 5296 aabe 767e 27be c9eb 27bc
00000030: efd1 4ebd b92b d73c bd64 a13c 161a 92be
00000040: fc0e 1c3e 88a6 eabd eacf c8bd da22 ddbc
00000050: 48cf dcbd 057a abbe 4da9 613e b3c5 ebbd
00000060: d4b0 043e d924 f4bd 901c 93bc 159d 593c
00000070: 471e 00be 25d2 613d 2e9e 01be 454b cfbd
00000080: 38c9 0dbd aa33 0c3e 794a 9bbd 47e3 023e
00000090: 4857 723b 4338 c6bd 0552 8ebe 5040 943c
000000a0: 0066 86bc 36e8 9ebd 9d9c 74be 5dc8 7b3b
000000b0: 790c bbbe eb57 bc3d cb21 163e 401e 1cbe
000000c0: e738 73be 4b3e b2bd e39b 0bbe 873f 6bbe
000000d0: c1df 2a3d 8407 96be 9298 103e 1696 a53c
000000e0: bb80 f5bd 0fbd 6ebe 2a25 e83c aa15 23be
000000f0: c4d9 313d c8e7 0f3d 9472 8bbd 73a9 0cbd
00000100: 9cf1 78b9 9239 2e3e ad6d 0cbd 8aaa 133e
00000110: ba4d d73d 8baf 37be afd1 df3d 8030 9abe
00000120: d783 4e3d 520d dcbd c58d 11be ef66 64be
00000130: 7436 d8bd ade6 edbd 22eb 21be e06a 2dbd
00000140: cd0c 68be 1af4 cb3d a8c3 403e 6e03 83be
00000150: e3a1 29be 48d5 99be b36e 6ebd 00a4 eebd
00000160: 42d3 8d3d 2417 89bd ca40 f2bd 1f08 a7bd
00000170: 1b64 47be 686e 033e eba7 a43d 0473 abbd
00000180: 7e33 033e 60d7 24bd a269 663d c153 3cbd
00000190: 30bb c2bd fc00 623d fde1 4ebe f34f 60bd
000001a0: 4806 9d3d e215 f4bd f78c 95be cffa 67be
000001b0: 1747 2abe e405 81bd e56c 7bbe d49f 09be
000001c0: 224c a2be fd13 06be 2df1 4fbe 6706 7ebd
000001d0: 3256 b33c f252 003e 7d6c 52bd 1d35 e6bd
000001e0: bf95 b3bc 0138 46bd 6c3d 63be 8f16 3f3d
000001f0: 8f57 1abe 4794 2d3d abb2 81bd 0113 01be

fc2.weight f4 [128, 132]
-0.018710762 0.016717661 -0.22305846 0.029653003 0.099952035 0.04131257 -0.0047697034 -0.07039506
-0.066387594 -0.08406764 -0.018233974 -0.106152266 -0.38161755 0.11425117 0.13608994 -0.047671225
-0.20215356 0.08636175 -0.089028515 0.18987067 0.25259313 -0.0006800974 0.118930146 -0.06804896
0.061181188 0.04708038 -0.2928197 0.2723739 0.08390024 -0.1945898 0.22970799 0.1675452
-0.15614758 0.021296302 -0.007133617 -0.13750806 0.03475001 -0.0063374913 0.055471964 0.0998665
0.023687031 0.06010767 -0.042816106 -0.152576 0.013863888 -0.157045 -0.1131955 -0.1474417
0.013838652 0.1335246 0.22110647 -0.11979258 0.024480186 0.12650761 0.075670846 -0.0056443866
-0.051348805 -0.17591368 0.05510443 0.088784404 -0.04593808 -0.020057816 -0.05894975 0.08660961
0.16474564 -0.01440521 0.012362791 0.09118477 -0.07184642 -0.05299132 -0.062235218 0.0046762233
-0.15095675 -0.0044510495 0.029710555 0.09937149 0.088889375 -0.060169917 -0.027771192 0.01801039
-0.020392621 0.10736086 0.0049101505 -0.011557295 0.038339656 -0.07965323 0.10178246 0.04404923
-0.007284744 0.13567181 -0.12651832 0.01690448 0.0077433423 0.20156908 0.108378544 -0.037309878
-0.00019225664 -0.10999366 -0.119914636 -0.17913434 -0.045156542 -0.018696409 -0.09000235 -0.18367387
0.081070095 0.11541041 -0.030225996 -0.026203005 0.061174177 0.080298394 -0.029257936 -0.07437593
0.04830918 0.10641432 -0.041790422 0.012442615 -0.058730707 -0.07775377 -0.0072182575 0.06974816
0.0015567703 0.025577396 -0.106218316 0.09039517 0.097973354 -0.07231963 -0.00041888186 -0.19899026
-0.040609546 0.03064052 0.07267937 -0.08982815 0.0052027865 -0.17383662 -0.005861107 -0.116265245
-0.024278777 0.036632054 -0.102505445 0.06649273 -0.19657716 -0.055041324 -0.104688734 -0.08068258
0.16464552 -0.043662995 -0.046368938 -0.07801175 -0.06063196 0.096287556 0.20414485 -0.12523472
-0.02744401 -0.17473297 0.058373366 -0.124240175 0.06459464 -0.24074465 -0.1905684 0.043420024
0.15127027 0.052243933 -0.13337539 0.0008556433 -0.12009395 -0.08212834 0.0123776 -0.0367841
-0.06794124 0.109922886 -0.0896955 -0.15511054 -0.16550294 0.027629178 -0.11257503 -0.075614795
0.098609366 -0.021732163 0.000645556 -0.06685295 0.18525867 -0.24800499 -0.006631919 -0.1975623
0.03461374 0.015454552 -0.08892885 -0.35229206 -0.21806438 -0.0023036737 -0.021107163 -0.015311123
0.01769009 0.08197929 -0.10773867 -0.11005884 0.053860378 -0.24994144 0.010264826 0.05247547
0.011404138 0.06880622 -0.15446715 -0.011381771 0.056632802 0.090266645 0.16855444 -0.14505823
-0.06074236 0.027767865 -0.0070780353 -0.054740928 -0.028050806 -0.017108573 -0.0047133435 0.17189874
-0.098308496 -0.11555575 0.09965047 0.02938386 0.06692866 -0.018796852 0.023283355 -0.10311946
-0.16346198 0.11094423 0.062105186 -0.03763631 0.07180027 -0.014575039 -0.024615966 -0.06556557
0.01624869 -0.26198184 -0.07350588 -0.03441579 -0.053104147 0.078683764 0.19859456 -0.3396172
-0.22711188 0.06651391 0.12040041 -0.023604713 0.002653311 -0.1903881 -0.019530745 -0.009554048
-0.130513 -0.059641972 0.1395039 0.16177507 -0.1575939 -0.041255783 0.16510387 -0.057229042
00000000: 5047 99bc 7af3 883c 7069 64be dbea f23c
00000010: a7b3 cc3d 5f37 293d 2c4b 9cbb 492b 90bd
00000020: 38f6 87bd a82b acbd 6a5f 95bc 5c66 d9bd
00000030: 6063 c3be 84fc e93d 295b 0b3e e742 43bd
00000040: 5801 4fbe 6ede b03d 9554 b6bd 756d 423e
00000050: e353 813e 9048 32ba a691 f33d 415d 8bbd
00000060: 2099 7a3d 5bd7 403d 77ec 95be 9874 8b3e
00000070: e4d3 ab3d 8c42 47be 9238 6b3e f890 2b3e
00000080: 27e5 1fbe 9575 ae3c 1ec1 e9bb eace 0cbe
00000090: 0756 0e3d bbaa cfbb 9236 633d cf86 cc3d
000000a0: 4e0b c23c 7633 763d f15f 2fbd e23c 1cbe
000000b0: 5c25 633c 68d0 20be 0bd3 e7bd f5fa 16be
000000c0: 83bb 623c acba 083e bc69 623e d055 f5bd
000000d0: ac8a c83c 368b 013e 51f9 9a3d 8cf4 b8bb
000000e0: 2053 52bd b722 34be 2fb5 613d 99d4 b53d
000000f0: 9129 3cbd 4a50 a4bc 4b75 71bd 6160 b13d
00000100: 15b3 283e d403 6cbc 4e8d 4a3c 15bf ba3d
00000110: 3724 93bd 6d0d 59bd 5bea 7ebd 013b 993b
00000120: 6894 1abe 1cda 91bb 8d63 f33c 4883 cb3d
00000130: a20b b63d bb74 76bd 6980 e3bc 878a 933c
00000140: 6d0e a7bc 03e0 db3d 54e5 a03b cf5a 3dbc
00000150: 0b0a 1d3d 3c21 a3bd 5373 d03d f76c 343d
00000160: ddb4 eebb 8ded 0a3e 058e 01be 447b 8a3c
00000170: ddbb fd3b 2068 4e3e 92f5 dd3d 3ed2 18bd
00000180: 8098 49b9 5b44 e1bd ce95 f5bd fe6e 37be
00000190: 11f6 38bd 3629 99bc 2753 b8bd 0115 3cbe
000001a0: 1408 a63d 4b5c ec3d 829c f7bc afa7 d6bc
000001b0: c691 7a3d 7c73 a43d 57ae efbc 6852 98bd
000001c0: d9df 453d c0ef d93d 6f2c 2bbd 1cdc 4b3c
000001d0: 9c8f 70bd 5e3d 9fbd 2287 ecbb 20d8 8e3d
000001e0: 8b0c cc3a b087 d13c fd88 d9bd 1a21 b93d
000001f0: 41a6 c83d 501c 94bd 5f9d dbb9 1ac4 4bbe
00000200: 3256 26bd d401 fb3c ecd8 943d d2f7 b7bd
00000210: 237c aa3b 3a02 32be 870e c0bb 791c eebd
00000220: 49e4 c6bc 7e0b 163d 60ee d1bd 572d 883d
00000230: 864b 49be 0373 61bd 0c67 d6bd e93c a5bd
00000240: d698 283e f8d7 32bd 5bed 3dbd a0c4 9fbd
00000250: 3859 78bd 6932 c53d 590b 513e 883d 00be
00000260: 43d2 e0bc 33ed 32be e918 6f3d a271 febd
00000270: 324a 843d c485 76be 5d24 43be 32d9 313d
00000280: 98e6 1a3e bcfd 553d 8f93 08be 404d 603a
00000290: d1f3 f5bd e732 a8bd 6bcb 4a3c edaa 16bd
000002a0: c724 8bbd 401f e13d 46b2 b7bd 4cd5 1ebe
000002b0: 9a79 29be 9656 e23c bd8d e6bd eedb 9abd
000002c0: b5f3 c93d a607 b2bc 883a 293a 33ea 88bd
000002d0: 73b4 3d3e 05f5 7dbe 9250 d9bb c64d 4abe
000002e0: 23c7 0d3d 1735 7d3c 5420 b6bd a05f b4be
000002f0: 454c 5fbe 3bf9 16bb eee8 acbc 81db 7abc
00000300: cfea 903c c2e4 a73d 18a6 dcbd 8766 e1bd
00000310: b39c 5c3d a6f0 7fbe cd2d 283c 85f0 563d
00000320: 6cd8 3a3c 47ea 8c3d a32c 1ebe 9c7a 3abc
00000330: ccf7 673d b8dd b83d 8999 2c3e 258a 14be
00000340: fbcc 78bd 6f79 e33c ddee e7bb 0638 60bd
00000350: ceca e5bc 4727 8cbc 6472 9abb 3906 303e
00000360: f755 c9bd 7ea8 ecbd 8c15 cc3d 6cb6 f03c
00000370: e511 893d dbfb 99bc bcbc be3c 4c30 d3bd
00000380: 9462 27be ba36 e33d 0262 7e3d 8828 1abd
00000390: 050c 933d 25cc 6ebc 6ca7 c9bc 3e47 86bd
000003a0: f91b 853c 7c22 86be 408a 96bd 92f7 0cbd
000003b0: bc83 59bd f424 a13d 5f5c 4b3e 4ee2 adbe
000003c0: 0490 68be 7238 883d 7d94 f63d ac5e c1bc
000003d0: 2ce3 2d3b 19f5 42be f1fe 9fbc 9588 1cbc
000003e0: 33a5 05be 244b 74bd 1cda 0e3e 5da8 253e
000003f0: 4c60 21be d3fb 28bd fd10 293e 0069 6abd

fc2.bias f4 [128]
0.12078998 -0.05042392 0.06179841 -0.20121096 0.18562096 -0.19335224 -0.18510875 -0.21308559
-0.26867518 0.07885755 -0.038864538 0.24536893 -0.25941998 -0.13782722 -0.24526997 0.14787465
0.15273732 -0.23104015 -0.23840733 0.11444878 -0.31040713 0.23965551 -0.02369938 -0.19106276
0.29612914 0.23020887 -0.20165998 0.032629304 -0.26029843 -0.23513651 -0.3042285 0.17342857
0.07132122 0.08279941 -0.2008522 -0.2333775 -0.000117867836 -0.170653 -0.16361187 -0.3220024
-0.1932259 0.11487924 -0.2132549 -0.23829344 0.004656234 -0.17783602 0.11027551 -0.09999243
0.010939187 -0.18608987 -0.18829572 0.055351272 0.0629377 -0.16491987 -0.1733518 0.033363715
-0.23574266 -0.13511871 0.18009847 -0.17251453 -0.31077158 0.09216391 -0.18124752 -0.19896929
-0.026143784 0.1446093 0.25758108 -0.3847405 -0.28506112 -0.24058019 0.17181167 -0.16178888
-0.33759788 -0.1402576 -0.22849713 0.27968106 -0.060811378 -0.31412852 -0.11186165 0.013549908
0.34700722 -0.3039129 -0.20967355 -0.086816885 0.18300354 -0.26646835 0.15064083 0.2834288
-0.2447867 0.15148795 0.2035496 -0.3774185 -0.245022 0.13957152 -0.010841837 -0.18343918
-0.20848694 -0.15417522 0.23408496 -0.3363467 -0.2916245 -0.06841211 0.09537813 0.148946
-0.27932954 -0.19546694 -0.008789207 0.24032885 -0.05229225 -0.058932662 -0.33944994 0.072211385
-0.20245917 0.35483837 -0.074413605 -0.16364846 0.041805245 -0.30168858 0.013553034 0.25865805
0.26951227 -0.3242296 -0.04831518 -0.147236 -0.087713934 -0.26296797 0.1971898 0.3500371
00000000: bd60 f73d 5089 4ebd 5420 7d3d 3f0a 4ebe
00000010: 6c13 3e3e 21fe 45be 268d 3dbe 1c33 5abe
00000020: cb8f 89be 1180 a13d 6c30 1fbd fe41 7b3e
00000030: b2d2 84be 9422 0dbe 0d28 7bbe 746c 173e
00000040: 2c67 1c3e ca95 6cbe 0d21 74be 1f64 ea3d
00000050: afed 9ebe 4168 753e 3425 c2bc f5a5 43be
00000060: 3d9e 973e e0bb 6b3e f47f 4ebe 4ea6 053d
00000070: d645 85be a0c7 70be d7c3 9bbe 4297 313e
00000080: dc10 923d bd92 a93d 33ac 4dbe 83fa 6ebe
00000090: d02f f7b8 a9bf 2ebe df89 27be 80dd a4be
000000a0: 03dd 45be cf45 eb3d 7e5f 5abe 3203 74be
000000b0: 5293 983b a51a 36be 20d8 e13d d5c8 ccbd
000000c0: 473a 333c 588e 3ebe 98d0 40be 04b8 623d
000000d0: 7be5 803d c1e0 28be 2283 31be 64a8 083d
000000e0: 8666 71be 8f5c 0abe bc6b 383e a6a7 30be
000000f0: 741d 9fbe 6fc0 bc3d f398 39be 9bbe 4bbe
00000100: 7d2b d6bc 7614 143e abe1 833e b5fc c4be
00000110: 88f3 91be a75a 76be 66ef 2f3e fcab 25be
00000120: a1d9 acbe b09f 0fbe 27fb 69be 5b32 8f3e
00000130: 5a15 79bd 74d5 a0be b917 e5bd 6f00 5e3c
00000140: eeaa b13e 799a 9bbe aab4 56be 0dcd b1bd
00000150: 4865 3b3e 8a6e 88be 9741 1a3e 941d 913e
00000160: 5da9 7abe a81f 1b3e 4e6f 503e ff3c c1be
00000170: 0ce7 7abe d6eb 0e3e f6a1 31bc 7bd7 3bbe
00000180: 9a7d 55be 1ce0 1dbe f8b3 6f3e a235 acbe
00000190: ce4f 95be a61b 8cbd 9c55 c33d 4d85 183e
000001a0: 4804 8fbe 7c28 48be 9b00 10bc c418 763e
000001b0: 6630 56bd 6063 71bd 62cc adbe 90e3 933d
000001c0: 7551 4fbe 60ad b53e 2966 98bd 7693 27be
000001d0: fa3b 2b3d ed76 9abe 8b0d 5e3c d46e 843e
000001e0: 83fd 893e 6c01 a6be 23e6 45bd 09c5 16be
000001f0: 5da3 b3bd bda3 86be 1fec 493e 1038 b33e

fc3.weight f4 [1, 128]
0.08560546 0.1662928 0.12242859 -0.069510184 0.11923447 -0.16829379 -0.14339 -0.20824412
-0.111992046 0.102980986 0.12345791 0.07010363 -0.09456007 0.14148135 -0.13615468 0.11598655
0.12493436 -0.14104746 -0.10386325 0.11391329 -0.18839888 0.11721998 0.1375436 -0.13627458
0.111737356 0.11531977 -0.10979748 0.13868846 -0.122934595 -0.1927499 -0.12729913 0.12248904
0.10439458 0.13149011 -0.1514901 -0.16485268 0.12120344 -0.14194143 -0.10958616 -0.13251792
-0.20643157 0.111477435 -0.0978852 -0.14156358 0.093496025 -0.10368557 0.091101475 0.20522495
0.10630053 -0.0965359 -0.17591342 0.08515852 0.11706936 -0.077905156 -0.13213365 0.14458296
-0.10428143 0.13061295 0.11791265 -0.11078607 -0.13972786 0.079754725 0.1122024 -0.1453
0.13714379 0.08148362 0.1446213 -0.13822348 -0.09463718 -0.09884366 0.113715135 0.19737014
-0.15806259 -0.15326943 -0.10928458 0.10605928 -0.1143742 -0.22169243 -0.066856876 0.13736579
0.114786275 -0.19856894 -0.111067936 -0.07911523 0.108942635 -0.12099556 0.084072836 0.09357035
-0.20432955 0.103552304 0.11012153 -0.26529488 -0.13063851 0.14026818 0.13753487 -0.13133802
-0.09798315 -0.1176606 0.13505617 -0.19467616 -0.1291688 -0.059625257 0.12696345 0.110276185
-0.101056 -0.17057796 0.15381704 0.102633335 0.11452541 0.1673366 -0.20439492 0.080188125
-0.13014537 0.10782474 0.18604445 -0.13725919 0.07987626 -0.13588649 0.11519664 0.11462055
0.10483136 -0.12067368 0.15345983 -0.114544824 0.17022489 -0.20283219 0.093321696 0.141551
00000000: ea51 af3d a948 2a3e d7bb fa3d 5b5b 8ebd
00000010: 3431 f43d 3555 2cbe d4d4 12be f23d 55be
00000020: 165c e5bd b2e7 d23d 80d7 fc3d 7e92 8f3d
00000030: b6a8 c1bd 7de0 103e 226c 0bbe 5b8a ed3d
00000040: 96dd ff3d bf6e 10be 41b6 d4bd 5f4b e93d
00000050: a3eb 40be 0711 f03d 3bd8 0c3e 908b 0bbe
00000060: 8ed6 e43d c62c ec3d 80dd e0bd 5904 0e3e
00000070: 22c5 fbbd 3b60 45be b45a 02be 89db fa3d
00000080: d3cc d53d 58a5 063e 3920 1bbe 24cf 28be
00000090: 8239 f83d 1859 11be b56e e0bd c7b2 07be
000000a0: cc62 53be 484e e43d 0978 c8bd 0bf6 10be
000000b0: d87a bf3d 1a59 d4bd 6993 ba3d 7d26 523e
000000c0: 18b4 d93d 9db4 c5bd a622 34be 9767 ae3d
000000d0: 10c2 ef3d bd8c 9fbd 0b4e 07be 8e0d 143e
000000e0: 8191 d5bd 67bf 053e 307c f13d cfe3 e2bd
000000f0: d214 0fbe 7256 a33d 5fca e53d 86c9 14be
00000100: 6c6f 0c3e e2e0 a63d 9b17 143e 758a 0dbe
00000110: 23d1 c1bd 8b6e cabd 7be3 e83d 661b 4a3e
00000120: 29db 21be a9f2 1cbe 98d0 dfbd 9c35 d93d
00000130: 053d eabd 5703 63be 42ec 88bd 9ea9 0c3e
00000140: 1115 eb3d a855 4bbe 9677 e3bd 2a07 a2bd
00000150: 511d df3d 85cc f7bd 612e ac3d d0a1 bf3d
00000160: c43b 51be 3b13 d43d 6687 e13d bbd4 87be
00000170: 1ac6 05be 76a2 0f3e f1d5 0c3e 797d 06be
00000180: 64ab c8bd 0af8 f0bd 2a4c 0a3e 3059 47be
00000190: d344 04be 9d39 74bd b502 023e 7bd8 e13d
000001a0: 73f6 cebd fdab 2ebe 3782 1d3e 6d31 d23d
000001b0: 4c8c ea3d 495a 2b3e e74c 51be ac39 a43d
000001c0: d444 05be 38d3 dc3d 7082 3e3e ac8d 0cbe
000001d0: 2a96 a33d d425 0bbe 37ec eb3d 2ebe ea3d
000001e0: d3b1 d63d c323 f7bd 9324 1d3e 7a96 eabd
000001f0: 6f4f 2e3e 3eb3 4fbe 721f bf3d bff2 103e

b1.weight f4 [128]
0.51321316 0.748642 0.7970799 0.5610046 0.6519719 0.5384319 0.66910976 0.69230664
0.4680042 0.33105084 0.4836806 0.8006882 0.63920045 0.69859475 0.51710796 0.45244804
0.47964713 0.70997846 0.30381498 0.4177267 0.30016738 0.3900809 0.53408146 0.48968408
0.62541264 0.46074858 0.46840125 0.4564711 0.31349388 0.5085778 0.69907606 0.69119465
0.53144324 0.77450705 0.5789194 0.781834 0.85750896 0.677007 0.6506477 0.34256455
0.565887 0.6559143 0.61018574 0.6905857 0.286719 0.5669602 0.6367128 0.26977137
0.5644583 0.79035705 0.28908595 0.32064682 0.56464434 0.63608885 0.551425 0.588232
0.5618229 0.6215358 0.51874566 0.7849434 0.29993054 0.51925373 0.5513094 0.8932643
0.59321547 0.70818645 0.775292 0.26301053 0.49601156 0.7015108 0.72050536 0.43508947
0.6389178 0.35997695 0.3867398 0.49047065 0.6331216 0.6915371 0.5166098 0.6251595
0.41343275 0.47234356 0.78483874 0.38627848 0.48525685 0.3769457 0.56562984 0.48694095
0.7139755 0.38767144 0.61638194 0.59585774 0.62602115 0.8857604 0.38418052 0.80855757
0.27818152 0.6926665 0.4988852 0.21343935 0.62120366 0.42076683 0.6081719 0.60600406
0.355113 0.5882413 0.31085378 0.8730245 0.5270328 0.40106744 0.3145294 0.52520806
0.41665685 0.55847347 0.8269019 0.7477284 0.29443675 0.794721 0.43342486 0.37044185
0.71924686 0.5003521 0.2948348 0.685279 0.6869574 0.6839874 0.53640676 0.6179344
00000000: f061 033f 01a7 3f3f 6e0d 4c3f ff9d 0f3f
00000010: a1e7 263f acd6 093f c74a 2b3f 023b 313f
00000020: 3f9e ef3e 7f7f a93e fca4 f73e e7f9 4c3f
00000030: a4a2 233f 1bd7 323f 3061 043f 45a7 e73e
00000040: 4f94 f53e 26c1 353f a38d 9b3e 46e0 d53e
00000050: 8aaf 993e afb8 c73e 90b9 083f dfb7 fa3e
00000060: 0b1b 203f 3de7 eb3e 4ad2 ef3e 94b6 e93e
00000070: 4582 a03e 2832 023f a6f6 323f 22f2 303f
00000080: aa0c 083f 1846 463f 1034 143f 4626 483f
00000090: b585 5b3f 5550 2d3f d990 263f 9f64 af3e
000000a0: f8dd 103f 00ea 273f 2235 1c3f 39ca 303f
000000b0: d5cc 923e 4e24 113f 9cff 223f 791f 8a3e
000000c0: 5780 103f d754 4a3f 1303 943e d22b a43e
000000d0: 888c 103f b8d6 223f 302a 0d3f 5f96 163f
000000e0: a0d3 0f3f f81c 1f3f 84cc 043f 0df2 483f
000000f0: 7f90 993e d0ed 043f 9d22 0d3f f8ac 643f
00000100: f8dc 173f b54b 353f 8979 463f 51a9 863e
00000110: 3af5 fd3e 3696 333f 0a73 383f 0cc4 de3e
00000120: 1e90 233f e64e b83e c202 c63e f81e fb3e
00000130: 4214 223f 9308 313f 8a40 043f 740a 203f
00000140: 75ad d33e 04d7 f13e 31eb 483f 4bc6 c53e
00000150: 9673 f83e 07ff c03e 1ecd 103f 5350 f93e
00000160: 19c7 363f df7c c63e 35cb 1d3f 228a 183f
00000170: ec42 203f 32c1 623f 4fb3 c43e a1fd 4e3f
00000180: cf6d 8e3e 9752 313f e26d ff3e d88f 5a3e
00000190: 3407 1f3f c06e d73e 27b1 1b3f 1523 1b3f
000001a0: 5fd1 b53e fb96 163f 3a28 9f3e 897e 5f3f
000001b0: 9feb 063f b658 cd3e ff09 a13e 0974 063f
000001c0: 0c54 d53e 1ef8 0e3f d8af 533f 216b 3f3f
000001d0: 6ac0 963e d672 4b3f dde9 dd3e 8eaa bd3e
000001e0: 9020 383f 1317 003f 96f4 963e 726e 2f3f
000001f0: 71dc 2f3f cc19 2f3f f451 093f f330 1e3f

b1.bias f4 [128]
-0.08019467 0.0894974 0.08157638 0.042768754 0.036570802 -0.1298552 0.14033921 0.06689936
-0.044202294 0.0760372 0.23944312 -0.16546082 -0.110489234 0.15518698 0.09495401 -0.077620186
-0.19832551 -0.09902782 0.038672056 0.12493686 0.08722187 0.14920245 -0.047219712 0.10691919
-0.3005737 -0.06465085 0.083671756 0.17055497 0.06482509 0.023050193 -0.10840871 -0.09616636
0.059688777 -0.020280546 0.0014513788 0.001031946 0.08007043 0.019065764 -0.03227575 -0.14501752
0.13542211 0.18489343 -0.022943795 0.24447455 -0.06069423 -0.1544251 -0.064289324 0.12049916
-0.096199185 0.103449464 -0.054098446 0.14606568 -0.050651297 -0.05977316 0.20981926 0.07533706
-0.046222255 0.01123755 0.06726303 0.070100665 0.14526395 -0.02114504 0.05299135 0.16811885
-0.04580864 0.13569808 -0.12538925 -0.35538718 0.21646085 0.28181475 0.14009282 -0.08600231
-0.078725144 -0.04501983 -0.1497282 0.09356885 -0.00027598933 0.09281412 -0.034323044 -0.04972214
-0.2011076 0.23000053 0.09140145 0.059167854 0.085745215 0.053389546 0.08225589 -0.06709696
-0.08268192 -0.01698799 0.03681506 0.10904674 0.035679195 0.049320783 0.021427294 0.0052468088
0.16561759 -0.046505854 0.015690172 0.07479867 0.11030338 0.03179664 0.1589326 0.19396587
-0.093336545 -0.17782478 -0.1294346 -0.035255354 0.05162568 -0.19231705 0.10343117 -0.150788
0.032857932 0.08211031 0.039412867 0.119560905 0.08750825 0.08036946 0.057007246 0.06230933
0.08429143 -0.054910406 -0.17606837 -0.059281837 -0.17576256 -0.27444792 0.110718936 0.17555967
00000000: 1a3d a4bd 6a4a b73d 8411 a73d 4a2e 2f3d
00000010: 44cb 153d c3f8 04be 15b5 0f3e 8802 893d
00000020: 770d 35bd 64b9 9b3d 9430 753e 906e 29be
00000030: 2e48 e2bd 56e9 1e3e 3f77 c23d 55f7 9ebd
00000040: d815 4bbe 19cf cabd 9766 1e3d e5de ff3d
00000050: 61a1 b23d 87c8 183e 7569 41bd 73f8 da3d
00000060: cce4 99be aa67 84bd 195c ab3d f6a5 2e3e
00000070: 04c3 843d c2d3 bc3c 6305 debd def2 c4bd
00000080: 387c 743d 6323 a6bc 313c be3a 5d42 873a
00000090: f7fb a33d ce2f 9c3c 9433 04bd 797f 14be
000000a0: 18ac 0a3e b454 3d3e a0f4 bbbc 8957 7a3e
000000b0: 839a 78bd 9d21 1ebe 1faa 83bd 43c8 f63d
000000c0: 1404 c5bd 50dd d33d 5596 5dbd 3e92 153e
000000d0: bc77 4fbd b3d4 74bd dcda 563e 514a 9a3d
000000e0: 8c53 3dbd b31d 383c 33c1 893d f090 8f3d
000000f0: 13c0 143e 5d38 adbc 750d 593d 5927 2c3e
00000100: d7a1 3bbd 70f4 0a3e 0a66 00be 4ff5 b5be
00000110: eaa7 5d3e 064a 903e 7e74 0f3e fb21 b0bd
00000120: a63a a1bd b766 38bd 5952 19be 06a1 bf3d
00000130: a9b2 90b9 5415 be3d 5296 0cbd 71a9 4bbd
00000140: 27ef 4dbe 4285 6b3e af30 bb3d fe59 723d
00000150: 309b af3d ffae 5a3d c775 a83d 226a 89bd
00000160: 2355 a9bd 662a 8bbc 63cb 163d e653 df3d
00000170: 5924 123d 9704 4a3d 4b88 af3c 6ced ab3b
00000180: a897 293e ec7c 3ebd ad88 803c 0c30 993d
00000190: bde6 e13d 323d 023d 3abf 223e fd9e 463e
000001a0: 3b27 bfbd b317 36be 818a 04be eb67 10bd
000001b0: 7375 533d c3ee 44be b9d3 d33d 2b68 1abe
000001c0: 0a96 063d 7329 a83d 636f 213d 59dc f43d
000001d0: 8637 b33d be98 a43d 6e80 693d 1138 7f3d
000001e0: fca0 ac3d bce9 60bd 444b 34be 83d1 72bd
000001f0: 1afb 33be 7084 8cbe 9cc0 e23d eac5 333e

b1.running_mean f4 [128]
0.36754775 0.2944549 0.15391102 0.1532474 0.20769896 0.24443813 0.06977823 0.46561438
0.16749506 0.041491948 0.094560914 0.16209778 0.14151578 0.1447086 0.033894066 0.070215136
0.69020236 0.10842198 0.27005383 0.07355308 0.041487657 0.056757372 0.577713 0.5413964
0.17794468 0.15805095 0.23044729 0.53775555 0.050979104 0.613608 0.16853435 0.2549089
0.6013408 0.11360861 0.007370537 0.16451871 0.13631581 0.3241719 0.11247987 0.16752292
0.3551442 0.2722223 0.1377354 0.46573657 0.1352723 0.05088694 0.2127114 0.16917227
0.072985515 0.2712057 0.45327324 0.12171812 0.28355184 0.14696044 0.5054168 0.310737
0.2300106 0.13405018 0.18496253 0.24983875 0.29979372 0.040253628 0.1047717 0.30991745
0.14464985 0.23069894 0.38946462 0.01893292 0.2392891 0.090468 0.600796 0.053606775
0.35682672 0.2018918 0.13434482 0.021539316 0.18772925 0.28472403 0.02368055 0.08412773
0.11828434 0.08834599 0.25816983 0.08865143 0.048057217 0.03698458 0.22068119 0.15280212
0.2781329 0.13147499 0.06616301 0.0701967 0.023788556 0.17252557 0.15434672 0.1787892
0.17949478 0.33521488 0.2957416 0.0446758 0.08776587 0.34130087 0.108967036 0.3044984
0.18118079 0.29474303 0.011554189 0.14447838 0.3666985 0.21560381 0.29599243 0.1008041
0.1734076 0.15568708 0.15485922 0.08727098 0.60793597 0.30648983 0.106151946 0.4944278
0.29984275 0.29932958 0.08551252 0.17935927 0.44319838 0.08261486 0.24940269 0.15666616
00000000: 382f bc3e cbc2 963e da9a 1d3e e3ec 1c3e
00000010: 09af 543e fd4d 7a3e e3e7 8e3d 0265 ee3e
00000020: d383 2b3e 76f3 293d 27a9 c13d f6fc 253e
00000030: 83e9 103e 7e2e 143e 81d4 0a3d f4cc 8f3d
00000040: 1ab1 303f 580c de3d 7f44 8a3e ffa2 963d
00000050: f6ee 293d 6b7a 683d 00e5 133f f498 0a3f
00000060: 2137 363e 1cd8 213e 60fa 6b3e 59aa 093f
00000070: 77cf 503d 6a15 1d3f 4594 2c3e 6b83 823e
00000080: 78f1 193f a2ab e83d 8c84 f13b 9877 283e
00000090: 5f96 0b3e dcf9 a53e d95b e63d 218b 2b3e
000000a0: 76d5 b53e b960 8b3e 820a 0d3e 0675 ee3e
000000b0: d284 0a3e d36e 503d 04d1 593e 7f3b 2d3e
000000c0: 6e79 953d 79db 8a3e 6e13 e83e 5a47 f93d
000000d0: b52d 913e cc7c 163e ff62 013f ec18 9f3e
000000e0: e687 6b3e 7344 093e d166 3d3e bbd5 7f3e
000000f0: 907e 993e fde0 243d 8c92 d63d 80ad 9e3e
00000100: 171f 143e 583c 6c3e e867 c73e 3619 9b3c
00000110: 3408 753e 4947 b93d c4cd 193f c792 5b3d
00000120: feb1 b63e b9bc 4e3e b091 093e 3873 b03c
00000130: 193c 403e 59c7 913e b6fd c13c 294b ac3d
00000140: 0f3f f23d beee b43d d62e 843e e28e b53d
00000150: a5d7 443d 257d 173d 40fa 613e 2978 1c3e
00000160: 6f67 8e3e 61a1 063e 7980 873d 4ac3 8f3d
00000170: 38e0 c23c 8baa 303e 110d 1e3e 8414 373e
00000180: 7bcd 373e 49a1 ab3e 716b 973e f9fd 363d
00000190: 98be b33d fdbe ae3e 1c2a df3d 37e7 9b3e
000001a0: 7587 393e 8fe8 963e c84d 3d3c 24f2 133e
000001b0: e8bf bb3e 3fc7 5c3e 528c 973e 6172 ce3d
000001c0: c391 313e 6f6c 1f3e 6a93 1e3e 21bb b23d
000001d0: b1a1 1b3f 3cec 9c3e 3166 d93d a425 fd3e
000001e0: fd84 993e ba41 993e 3021 af3d f5a9 373e
000001f0: e6ea e23e fb31 a93d 6b63 7f3e 186d 203e

b1.running_var f4 [128]
0.19875686 0.28104433 0.07148411 0.09428275 0.09672151 0.16821544 0.0397436 0.31080034
0.12672152 0.014071163 0.035915278 0.07858918 0.05669416 0.053707182 0.015839327 0.02484044
0.4276546 0.046965804 0.1888563 0.03975621 0.02185246 0.033206195 0.3089868 0.5448025
0.11150055 0.12145109 0.11600655 0.29477033 0.027367424 0.58032924 0.10730646 0.14976712
0.43264538 0.059756514 0.0045758025 0.0923218 0.062900364 0.2310841 0.056218944 0.076045275
0.3066323 0.23485532 0.06818666 0.16839653 0.07663312 0.025768172 0.1582411 0.11668037
0.029652333 0.17267948 0.24094246 0.07569474 0.20341332 0.07813075 0.21102265 0.1811989
0.17844774 0.05839631 0.041019507 0.18137231 0.123383254 0.017656464 0.038904883 0.20205927
0.059966117 0.15161525 0.20933658 0.00847972 0.11837816 0.039401792 0.14510104 0.027438091
0.28792965 0.111787185 0.12370779 0.009776437 0.12105262 0.11981005 0.009964458 0.044317562
0.06114955 0.03215287 0.12463772 0.049209297 0.023224073 0.018126676 0.14211324 0.06263261
0.16742693 0.10805282 0.032601576 0.023522725 0.0057517183 0.09599394 0.0862268 0.08459317
0.13017684 0.22927542 0.25731596 0.033532176 0.039005972 0.19902048 0.050628267 0.098773964
0.10996728 0.18220717 0.005453335 0.07647492 0.33631006 0.13007079 0.16321677 0.053693548
0.09361928 0.08772014 0.081808016 0.043654464 0.55040187 0.14986652 0.050720952 0.2069231
0.17328186 0.19050263 0.043655284 0.0844415 0.36034027 0.029576201 0.1375536 0.08098319
00000000: eb86 4b3e 0be5 8f3e 4366 923d 5017 c13d
00000010: ed15 c63d ab40 2c3e 2fca 223d 3921 9f3e
00000020: 49c3 013e bc8a 663c e61b 133d 5df3 a03d
00000030: 2338 683d 10fc 5b3d 7ac1 813c 2e7e cb3c
00000040: 8bf5 da3e 375f 403d 8c63 413e 68d7 223d
00000050: ee03 b33c 3803 083d 8533 9e3e 2d78 0b3f
00000060: 665a e43d 59bb f83d d894 ed3d 23ec 963e
00000070: a631 e03c 7590 143f 7dc3 db3d 8d5c 193e
00000080: b283 dd3e 3fc3 743d 9df0 953b 3613 bd3d
00000090: e8d1 803d 4fa1 6c3e d645 663d a0bd 9b3d
000000a0: e9fe 9c3e ea7d 703e 73a5 8b3d 2470 2c3e
000000b0: d3f1 9c3d c617 d33c f409 223e 1ef6 ee3d
000000c0: 73e9 f23c e4d2 303e 9fb9 763e d805 9b3d
000000d0: 954b 503e 0403 a03d 5216 583e 348c 393e
000000e0: 01bb 363e f830 6f3d 1204 283d aab9 393e
000000f0: 5cb0 fc3d 4aa4 903c ba5a 1f3d a0e8 4e3e
00000100: 089f 753d 0741 1b3e 545c 563e 86ee 0a3c
00000110: 4070 f23d c663 213d 5e95 143e d9c5 e03c
00000120: 846b 933e aef0 e43d 835a fd3d 592d 203c
00000130: 70ea f73d f95e f53d f741 233c 5586 353d
00000140: f377 7a3d bab2 033d 1042 ff3d b08f 493d
00000150: 6940 be3c 657e 943c 2286 113e 8745 803d
00000160: f771 2b3e cc4a dd3d 3b89 053d bbb2 c03c
00000170: e978 bc3b 7998 c43d ad97 b03d 2f3f ad3d
00000180: 144d 053e 2dc7 6a3e ebbe 833e 0959 093d
00000190: bac4 1f3d 06cc 4b3e 965f 4f3d 014a ca3d
000001a0: 8636 e13d 8494 3a3e e4b1 b23b e29e 9c3d
000001b0: d530 ac3e 4731 053e 4c22 273e c4ed 5b3d
000001c0: 77bb bf3d 9ea6 b33d f68a a73d 06cf 323d
000001d0: 23e7 0c3f 9c76 193e c6c0 4f3d a6e3 533e
000001e0: cd70 313e 1f13 433e e2cf 323d aaef ac3d
000001f0: 857e b83e ca49 f23c dada 0c3e 84da a53d
