checkpoint_actor.pth (torch_old, 88985 bytes, 10 tensors)

fc1.weight f4 [128, 33]
00000000: f759 7dbd 2400 ff3c b4cd 5d3d 9a02 eabd
00000010: 64b0 253e 07b3 153e 8f38 bbbd 5b7d 72bd
00000020: 60dc 34be 5d16 20be 48d3 fc3c 1d7e 573c
00000030: df17 16bc d6d2 1d3d 2e51 263c 7261 e53c
00000040: a201 82bd b954 f53d acac cc3e 69ff 273e
00000050: c38c d5bc 24a4 83bd 186c ba3c ff72 603c
00000060: e948 05bc b6af 0ebc a757 2dbe e310 5b3e
00000070: 8aad 90bd b0e6 163c 93d4 bcbd ad3f 933d
00000080: 60f6 2abf 252e 41be 1b47 0b3e fcf3 f1bd
00000090: 2eac 29be b28f 033b a324 75be 001e 55be
000000a0: d46f 40bd 0ec2 60bc 59b0 29be 95c8 b13c
000000b0: afc0 503d 69bb 86bc 2668 8ebd a1ae 1bbe
000000c0: 518a 043e adef debe c12a 5ebc 67ef 0ebe
000000d0: 2199 803d f8d2 a7bb 4fe6 52bd 4f97 f8bc
000000e0: 51e3 303d 75fd 83bd 55e6 0fbc 8ec5 923c
000000f0: 283b 853e b8a5 10be 6e58 443d d7de d3bd
00000100: 7afa 03bd 86f4 613e 8f5d 63be 5604 ac3e
00000110: 680a efbd 0bf3 a0be cd68 2c3e 9e8a 2b3d
00000120: 07c0 173d 4bf3 243c c3da 703e 5035 88be
00000130: 020c c5bc 8d88 ca3d ce4a fabd c805 2abd
00000140: a29f ec3d d627 aabd 157f 603d 39dd 20be
00000150: 1620 3e3e 6253 a4be a2fd c63c b2d9 d03d
00000160: 7095 5c3e 85ad 9abd 7b36 9b3d 480c ba3c
00000170: 53f5 323d 89e4 20be fb27 e83d c00d 5b3c
00000180: 49f1 e13c 4002 8fbb f179 ba3b 6b01 3a3e
00000190: 6fd4 483b 250f a7bd 5a15 783d 5815 b23e
000001a0: 1c1a 223e efa7 523e 8bd0 2bbd 188c c8bd
000001b0: 4fb3 e83d a3ad 0b3e 2796 d6bd 29df 35bc
000001c0: 21a9 1ebc 9b14 97bd 552c 223c 90fd 813e
000001d0: b2a5 72be ed5f 213e 2946 01bf f3a0 2f3d
000001e0: 0288 9cbd 03dd 74bc 8bf4 ca3c f256 9cbd
000001f0: 5ed1 16bd e683 25be 5c81 1cbe 75ac d03c
00000200: 78c6 c33c 7479 313e a5a7 afbd b387 ffbd
00000210: eff1 9cbe 0904 0cbe df98 143e 9a8b 863c
00000220: 35e2 a1be fa51 08bf e8ff 41be 7a53 3ebd
00000230: 0a01 b4bd effe 613c 2649 5bbd 3356 2ebc
00000240: 4601 22bd a973 edbb 8479 db3d b19f 17bd
00000250: e654 5f3e 4c18 fcbd a634 bcbc 0ee4 d3be
00000260: 52ed e7bb fcff 803d 5669 84bd 01b1 8abc
00000270: 8a31 223d afc6 05be c9d3 96bd 8c7b 60bd
00000280: 26e9 cabc 2fca a03d 868d 2f3d 4149 56bd
00000290: df81 7abc 03f2 41be 0c89 1c3e 2760 16be
000002a0: 8e85 f639 a776 9fbe 4fbb 423e 0cf9 bbbd
000002b0: c550 b93b ccff cfbd 9c40 35bd d772 ddbd
000002c0: 9822 ae3d 4b2c eb3c 82b5 ed3c a8a3 90bc
000002d0: 6167 993c 5e29 5e3e 0424 e4bd 3798 c53d
000002e0: 783d abbd 528a 0cbd d9e1 623d 4f1b 76bb
000002f0: bf95 a0bd 266b 553d 139e 4d3d b243 f6bd
00000300: 5c6d db3b a8f0 34bd b7bb b13d 9139 63bd
00000310: 43ec 4abd fb44 40bf dc34 ca3c 3b3e 673d
00000320: 941a 0d3e c9e9 a4bc 5b2e 7bbd eb7c 48bd
00000330: cb60 a13c 5805 47bd 687c 30be 6de0 14bd
00000340: 5c55 8bbc 0d66 853c 5310 a13c 20a7 9e3c
00000350: 01c1 e63c 1390 98bd f49d ac3c ba65 6e3d
00000360: 588c 603d 371d 073e d389 193d 3214 a53d
00000370: d4d3 b43c bd62 103c e22f d9bc babe d3ba
00000380: 223f 30bd 951c 333d a595 a23d 0a5a 06bd
00000390: a8cf 6cbd e8a8 5e3c 476a 97bf 403a 963e
000003a0: 3c50 103e 971a af3d 17c8 f53d aac7 b1be
000003b0: 5219 9b3e 3933 543e f64e c0bd f03e e1bd
000003c0: ff85 66bd 7059 d5bc 0814 203d 7e39 76bd
000003d0: 80fe 38be 3e76 10be dc37 ddbd a374 4cbd
000003e0: eb10 28be 6629 a23e 050c 19be fbb2 1bbd
000003f0: 772b 483d 9fea 123d aaf2 a1bd 9876 91bc
-0.061853375 0.031127997 0.054151252 -0.114262775 0.16180569 0.14619075 -0.09141647 -0.05920158
-0.17662191 -0.15633531 0.030862466 0.013152626 -0.009160965 0.038531147 0.010151191 0.028000567
-0.06347968 0.1197905 0.39975488 0.16406025 -0.026068097 -0.06427792 0.022756621 0.013699292
-0.008135059 -0.008708885 -0.16927968 0.2139316 -0.0706435 0.009210274 -0.09220233 0.071898796
-0.6678219 -0.18865259 0.13601343 -0.118141145 -0.16569588 0.0020074663 -0.23939757 -0.20812225
-0.046981648 -0.013718141 -0.16571178 0.02170209 0.050965007 -0.016446786 -0.069534585 -0.15203334
0.12943389 -0.43542233 -0.013559998 -0.13958512 0.06279207 -0.005121585 -0.05148917 -0.030345587
0.043185536 -0.064448275 -0.008782943 0.017916467 0.26021695 -0.14125717 0.047935896 -0.10345238
-0.032221295 0.22065935 -0.22203659 0.33597058 -0.11671907 -0.31435427 0.16836853 0.041880243
0.037048366 0.010067771 0.23520951 -0.26603174 -0.024053577 0.09889326 -0.12221299 -0.04150942
0.11553885 -0.08308379 0.054808695 -0.1570939 0.18566927 -0.32094866 0.024290863 0.10197772
0.21541381 -0.075526275 0.07578751 0.022710934 0.04369099 -0.15712179 0.11335751 0.0133699775
0.027580874 -0.004364282 0.005690806 0.18164603 0.0030644198 -0.081571855 0.060567237 0.3478191
0.15830272 0.20571874 -0.04194693 -0.09792346 0.113623254 0.13640456 -0.10477858 -0.011100569
-0.009683878 -0.07376977 0.009898265 0.25388765 -0.2369602 0.15759249 -0.5049768 0.042878103
-0.07643129 -0.014945271 0.02477481 -0.07633771 -0.03682076 -0.16163597 -0.15283722 0.025472859
0.023898348 0.17331487 -0.085768975 -0.124770544 -0.3065333 -0.13673414 0.1451144 0.01642399
-0.31617895 -0.53250086 -0.18945277 -0.04646633 -0.08789261 0.013793691 -0.053536557 -0.010640669
-0.039551996 -0.007246454 0.10716537 -0.037017528 0.2180973 -0.12309322 -0.022974323 -0.4138493
-0.0070778513 0.06298825 -0.06465404 -0.016930105 0.039598025 -0.13064073 -0.073646136 -0.054805323
-0.024769377 0.078510635 0.042859577 -0.052315954 -0.015289753 -0.18939976 0.15286654 -0.14685117
0.00047020282 -0.31145212 0.19016765 -0.09178361 0.0056553804 -0.10156211 -0.04425107 -0.108129196
0.08502692 0.028707644 0.029017214 -0.017656162 0.018726053 0.21695468 -0.11139682 0.09648173
-0.083613336 -0.0343116 0.055391166 -0.0037552898 -0.07841062 0.052104138 0.05019958 -0.120246306
0.0066963863 -0.04417482 0.08678382 -0.05547482 -0.049541723 -0.75105256 0.024683408 0.056455832
0.1377967 -0.020131009 -0.061323505 -0.048947256 0.019699475 -0.04858908 -0.17234957 -0.03634684
-0.017008476 0.016284013 0.019661104 0.0193668 0.028168203 -0.07449355 0.021071412 0.058202483
0.054821342 0.13194738 0.037484955 0.080604926 0.022073664 0.008812604 -0.02651209 -0.0016154863
-0.04302896 0.04372843 0.07938699 -0.03280071 -0.057815224 0.013590075 -1.1829308 0.29341316
0.14093107 0.085499935 0.12001055 -0.34722644 0.30292755 0.20722665 -0.093900606 -0.109983325
-0.056280132 -0.026043624 0.039081603 -0.060113423 -0.18065834 -0.14107606 -0.1080167 -0.04991592
-0.16412704 0.3167221 -0.14945991 -0.038012486 0.048869576 0.035868283 -0.079076126 -0.017756745

fc1.bias f4 [128]
00000000: 04ae 91be cb78 a3be 7979 653e 9fde 073e
00000010: d9d1 753d bcc5 60be e71b dd3d f6ac 5fbd
00000020: 93fa 103e 9b32 75be 011c 4d3d dc85 3cbe
00000030: acea 3fbe 66f6 32be 2fa1 703e 56ac f5bc
00000040: 03fb 573d 7603 09be 6182 823d 5f37 95bd
00000050: efce 3fbd e4e2 dbbc d583 223d 3620 0e3d
00000060: db2f 56bd ed5f 46be b804 44be 63a6 37bd
00000070: a397 1abe a530 483e 8f8b 05be 3270 95bd
00000080: ade4 1fbe d07b a13d 3438 a8be 37a4 95bc
00000090: e8d2 22be c8d9 c2be 9471 b03b ab15 2b3e
000000a0: f772 20be e104 843d 9b69 4fbe 8b9d 45bc
000000b0: 29b3 19be 1741 b9bd 9fb6 94bd a103 51bc
000000c0: c394 0cbe f57b 65be 753d 98be 8a3f f8bd
000000d0: 5f9e 8ebc 500c 83be e101 15be b773 083d
000000e0: c69a ba3d debf 2cbe 7ee6 59bc 8cb0 773d
000000f0: 204d 473e 42c6 9a3d 638c 163e f184 91bd
00000100: 1329 90bd def1 eabd 90c8 75bd 5b64 45bd
00000110: 1af2 46be fd15 47be fe4e 81be 2fda 7abe
00000120: 66b0 b4b9 5986 62be f5fd 81be 5dee 70be
00000130: d98c 15bd 13e2 8c3d e74a cbbd 3c3a 2ebe
00000140: 558b 2abe b4d6 13bd dcea 38be e097 9ebe
00000150: bc23 2b3e a4c5 b5be c574 44be 0836 bc3d
00000160: d1dd 3ebe b580 7dbd ecbc 42bd ad62 91be
00000170: 06eb adbd bae9 3dbe 8f94 bcbd 4c85 88be
00000180: 6121 cfbd 2c61 9cbe 2bfd 473e acc7 09be
00000190: ee74 77be 9d77 91bd a572 1f3e fd6f 0dbb
000001a0: 946c 2dbe bba3 033e cdd7 e33d 7c98 81be
000001b0: 3ff8 9dbe a64c 6dbe 2459 b93d e428 11be
000001c0: 1c5e 43be 9b6d 11be f45e acbe 52d1 b73d
000001d0: 3ea7 063e 278a 903d 1d08 583e cbb0 c53d
000001e0: cde7 ef3d 9afa 5c3d 8bde a7be c8f2 e8bd
000001f0: 4024 66be c123 b6bd 4cac 383d 70fb f7bc
-0.28453076 -0.31928095 0.2240962 0.13268517 0.06001458 -0.2195043 0.107963376 -0.054608308
0.14158086 -0.23945086 0.050075535 -0.18410438 -0.18741864 -0.17476806 0.23498987 -0.029989403
0.052729618 -0.13380226 0.06372524 -0.07285952 -0.046828207 -0.026841588 0.039676506 0.034698687
-0.052291732 -0.1937253 -0.19142425 -0.044836413 -0.15096907 0.19549806 -0.13041519 -0.0729679
-0.15614577 0.078849435 -0.3285538 -0.01826678 -0.15900767 -0.3805678 0.0053846333 0.16707484
-0.15668856 0.06446243 -0.20255129 -0.012061487 -0.1500975 -0.09045618 -0.07261395 -0.012757213
-0.13728623 -0.22410567 -0.29734388 -0.12121494 -0.017409502 -0.2559533 -0.14551498 0.03331348
0.09111552 -0.16870067 -0.0132995825 0.060471103 0.19463015 0.07557346 0.14701991 -0.07105435
-0.07039084 -0.11471914 -0.060005724 -0.04819141 -0.19428292 -0.19441982 -0.2525558 -0.24497293
-0.00034463702 -0.22121562 -0.25389066 -0.23528428 -0.036511276 0.06879058 -0.09926396 -0.17014402
-0.16654713 -0.03609343 -0.18058342 -0.30975246 0.1671285 -0.3550235 -0.19185169 0.09189993
-0.18639304 -0.061890323 -0.04754345 -0.28395596 -0.08492093 -0.18546191 -0.09208023 -0.26664197
-0.101137884 -0.30542886 0.1953017 -0.13455075 -0.24165699 -0.071028925 0.15571077 -0.0021581643
-0.1693595 0.12855427 0.11125145 -0.2531165 -0.3085346 -0.2317377 0.09050205 -0.14175755
-0.19078869 -0.14201967 -0.33666193 0.089754716 0.13149735 0.070576005 0.21096845 0.09652861
0.11714134 0.05394993 -0.32786974 -0.11374432 -0.22474766 -0.08893538 0.04508619 -0.030271262

fc2.weight f4 [128, 128]
00000000: 8296 4abe 0154 a23b 3f43 8a3c d743 a3bd
00000010: 55f8 00be fb9a d33d 9ade 31be 0298 773e
00000020: 8b61 a93d aede 8f3e 2c19 a43e 6fb5 d1bd
00000030: 4597 b23d 93a3 ccbd 13b8 79bd 5e99 8fbe
00000040: f416 dabd dc8b bf3e 8e31 723e 0011 76bc
00000050: 2dad 49be 8b7a 31be 5e60 ed3e 75e9 c1bd
00000060: 256c 3fbb bf7f 65be 320f 4cbd abe8 ed3d
00000070: e5e6 293d a3b6 28be 226a e9bd e383 cfbc
00000080: 01ff 923e d201 97be 4977 023d 2d87 a63d
00000090: 0068 a53d f979 8abe 5c01 cd3c 86f4 463c
000000a0: 5d3f dfbe bb5e c0be f107 223e fbc2 5cbe
000000b0: 268a 2abe fdf7 ae3c cb2f 923e db2c 723d
000000c0: e0bd 57be 5451 f93d 836c 523e 3be3 98be
000000d0: f5be 5d3e 451d c8be 03c0 c63e d858 07be
000000e0: 94ec 41be 753d ea3d 211a 803e 85fd 733e
000000f0: f908 b93e 2869 a7be 3ecb 18be 50b5 b43c
00000100: a68b 66bd b027 443c 2b7a 2fbe a3b3 2a3e
00000110: 6d93 653e 14fa 413e 6d6c 723e c015 0bbd
00000120: 1d7e 77bb f300 cd3e 3c18 4c3d fa4f 1ebd
00000130: fed3 83be 8219 ae3d bb3d a3bd e489 0c3e
00000140: cd29 653e ad34 00bd b1d2 5d3e f619 f83d
00000150: 0875 bebc 6bf8 493d cc63 223e c108 b1be
00000160: 13d9 a6be 236c 413e 2d82 8ebe 2bfe 543d
00000170: 964e 283e 446b f63c 7881 34be 4c4c d13c
00000180: f330 54bd 8d31 493e 6f21 59bd c2ec 0a3e
00000190: 1d16 59be 4f5d b4be 079d df3c 80e4 813d
000001a0: 17c5 083e f9db 1e3e f94f 4e3c 4113 a23d
000001b0: e775 9cbd 1e91 30be 56e1 2f3e 962f c43c
000001c0: 6794 0abe dbd5 6cbe 13d6 ce3d 3de4 113e
000001d0: 5a0f a13e 98f1 1bbe de3f 7a3e 5165 c43e
000001e0: 4e82 d03e eda6 8cbe 0b36 f23d 5c25 4f3e
000001f0: 95f8 37be 64e7 0dbf 604a ecbd bc17 94be
00000200: 1759 51be ab42 753d 1d8a b8bb acd4 76bd
00000210: 220c c1bc de59 393d 677f 033e 9084 403e
00000220: 3a7e 9a3c ce51 88be 4961 9cbd bcc2 b4bd
00000230: 680c ea3d 5c0b 24bc b0dc a0bd cec5 c8bd
00000240: df0e 40be ccf9 5c3e 867b 3bbe 921c a9bc
00000250: bb20 d739 db3f 23be 9ed3 25bd 1cb4 f1bb
00000260: 9dd8 963d 7939 bd3e db00 e4bd 48f6 74be
00000270: 953a 253e 6b0a c9bd 19b1 85be fdae 14be
00000280: d671 4ebe 77bf 7c3d 4ae5 793d 66fa 2ebe
00000290: 9af1 09bc 2a3e 45ba 1bbe 473d 23a1 02bd
000002a0: 6f8b cb3e cd08 acbd 1fad 67be ba23 313e
000002b0: 8ab7 43bc ab32 253d f101 7b3e 7c89 1e3d
000002c0: f5fe 593e 22b4 133e 3b2f b63d 616a 4a3e
000002d0: f3e3 7cbe 61a4 4f3d 2a21 c73c f11f 263e
000002e0: 4502 6abe 5a1a 703d 38ab ff3d b427 0b3e
000002f0: f7ac 033e 63bb e83e ce00 07be 9538 0b3e
00000300: 9dbb 0f3e 995f 8bbd c0ce 713d 75b6 e03d
00000310: 053a aabd b6c2 9c3d dcf2 8a3e 0cac 9bbe
00000320: 6ecc 623e 786e c4bd b0d8 1fbe 21d6 403e
00000330: 8370 093d 09c6 583e 4235 2f3e ab59 e3be
00000340: 2220 ef3d 0b83 54bd b0bd 07bd 29be 46be
00000350: 8322 533e 66b9 abbd 2474 b03d 260f 9ebe
00000360: 3d14 48bd f54a b23d 85eb 9c3d 4805 2a3d
00000370: cd3b 673e fbe3 d4bd 7dd2 4abe 6fab f2ba
00000380: 0df0 09bd 23ec 58be 1711 29bd 589d 943e
00000390: cba1 23be 2e10 27bd f9e1 0b3e 2ae8 b83d
000003a0: 5edf 1fbd e736 87bc a841 1f3e 9d46 c13c
000003b0: 5f04 58be 48b2 c4bd 9dcf 25bc ac59 16be
000003c0: 24f4 543e 962b 07be af27 6abb 4aa3 7fbe
000003d0: fc63 f2bd a52d dbbc 536e 1e3d a2e1 12be
000003e0: ef8f 47bd 6999 e7be ae01 b93e f030 f5bd
000003f0: 576f 0f3e 300a 8d3e 1627 09be f62a 38be
-0.19783977 0.0049538617 0.016877769 -0.07971924 -0.12594731 0.103322946 -0.17370072 0.2417908
0.08270558 0.2809958 0.32050455 -0.10239684 0.087202586 -0.09992137 -0.060966562 -0.28046697
-0.10648909 0.37411392 0.23651716 -0.015018702 -0.19694968 -0.17331903 0.46362585 -0.094683565
-0.0029208746 -0.22412013 -0.04981918 0.116166435 0.041479964 -0.1647592 -0.11397196 -0.025331443
0.28710178 -0.29493576 0.03185204 0.081312515 0.08076477 -0.27046183 0.025025062 0.01214326
-0.4360303 -0.37572274 0.15823342 -0.21558754 -0.16654262 0.021358484 0.28552088 0.05912481
-0.21068525 0.12173715 0.20549206 -0.29860863 0.21654876 -0.3908483 0.38818368 -0.13217485
-0.18937904 0.11437503 0.25019935 0.23827179 0.36139658 -0.32697415 -0.1492128 0.022059113
-0.056285523 0.011972353 -0.17136447 0.16670088 0.2241952 0.18943053 0.23674174 -0.03395629
-0.0037764378 0.40039787 0.0498278 -0.03865049 -0.25747675 0.08500959 -0.079707585 0.13724476
0.22379227 -0.031300236 0.21662404 0.12114327 -0.023249164 0.049309175 0.15858382 -0.3457699
-0.3258749 0.18888907 -0.2783369 0.052000206 0.16436228 0.030080445 -0.17627513 0.025549076
-0.051804494 0.19647808 -0.0530104 0.13566878 -0.21199842 -0.3522744 0.027296556 0.06342411
0.13356434 0.155136 0.012592309 0.07913829 -0.076396756 -0.17242858 0.17175803 0.023948472
-0.13533174 -0.23128454 0.10099425 0.14247222 0.31457025 -0.1522888 0.24438426 0.38358548
0.40724415 -0.27471104 0.11826714 0.20229095 -0.1796592 -0.554312 -0.115376234 -0.28924358
-0.20444141 0.059878033 -0.0056316988 -0.060261413 -0.023565356 0.04525172 0.12841569 0.18800569
0.018859018 -0.26624912 -0.07635743 -0.08826205 0.114281476 -0.010012474 -0.07854593 -0.09803353
-0.18755673 0.21579665 -0.18308839 -0.020643506 0.00041032382 -0.15942328 -0.040485017 -0.007376207
0.073655345 0.3695791 -0.11132976 -0.23922074 0.16135629 -0.0981644 -0.26111677 -0.14519878
-0.20160612 0.061706033 0.061009683 -0.17087707 -0.008419419 -0.0007524217 0.048765283 -0.031891953
0.39754817 -0.08400116 -0.22624634 0.17298785 -0.011945615 0.040331524 0.2451246 0.038705334
0.21288665 0.14424184 0.08895727 0.19767143 -0.2469633 0.050693873 0.024307806 0.16223122
-0.22852428 0.05861888 0.12483829 0.13589364 0.1285895 0.45455465 -0.131839 0.13595803
0.14036413 -0.06805343 0.059035063 0.10972301 -0.083118476 0.07654326 0.27138412 -0.304047
0.22148296 -0.09591383 -0.15610003 0.18831684 0.033554565 0.21169294 0.1711016 -0.4440435
0.11676051 -0.051882785 -0.033139884 -0.19408478 0.20618634 -0.08384971 0.08615902 -0.30870932
-0.048847426 0.08705703 0.07662109 0.041508943 0.22581406 -0.10395046 -0.19806857 -0.0018514226
-0.033676196 -0.21183829 -0.041276064 0.29026294 -0.15979688 -0.040786915 0.1366042 0.09028657
-0.03903138 -0.016505672 0.1555239 0.023593241 -0.21095417 -0.09604317 -0.0101203 -0.14682645
0.20796257 -0.1320022 -0.003572922 -0.24964634 -0.11835477 -0.026755163 0.038679432 -0.14343885
-0.04872125 -0.4523423 0.36134094 -0.11972225 0.14007317 0.27546835 -0.13393816 -0.17985138

fc2.bias f4 [128]
00000000: 7563 1bbe 8308 24be e4e1 75bc 0a49 51ba
00000010: 8deb 5dbe 3534 de3d 53d5 0abe fbb2 8c3a
00000020: e6c2 00be 4284 523e a6aa ca3d 6cef e0bd
00000030: 85a4 62bc 241c dbbd 2060 8f3d ce47 10be
00000040: d6a2 1f3e 47f5 6c3e 5931 48be 8c4c 25be
00000050: 5d8e 913d 47e1 11be bae7 803e 9a32 37b8
00000060: 1f8a 25be 0d1b 1bbe 36e8 a53b 722c 62be
00000070: 2ec5 bebe d6cd f33d 2c1c 47be 3088 56be
00000080: eb74 0dbe d48f e93d 936a 07be 8aed 5bbe
00000090: 3332 fb3b e6d1 133d ea96 88be 9b67 a73d
000000a0: faf6 acbe dc8b f7bd 78d0 bf3d 2b90 6abc
000000b0: 38d4 bcbd f064 cbbd 2cc3 a93b f7f7 cabd
000000c0: aa45 e5bd e088 303b f074 833c d9c9 84bd
000000d0: 6437 9fbd 1942 9abd 8090 6c3d 61ec b43d
000000e0: 50cf 713d 90d6 0a3e 2384 263e 573f 583d
000000f0: 7194 e6bd 85e4 163c e773 4dbe 70fc 99bc
00000100: d7fb f8bd 4927 2fbe e178 c4bd 51b6 d8be
00000110: 4c75 4cbe 906c 593d fe87 d2bd d83f c0bd
00000120: 3b8b 29be bd88 91be 2c9c 7ebe d1ba 1bbe
00000130: 4088 8abe d6ec 6fbe 49e0 a4bc 6e62 253e
00000140: d4d1 38be 4f54 2d3e 7f72 8c3d 3216 593d
00000150: 325c 39be ca94 86bd ce78 2dbd 87b9 82bd
00000160: 27ea 05be 1fe7 fc3d ccd9 c13c 96d5 21be
00000170: 1dc8 8abe e989 a3be 055e 23be a89f 363d
00000180: 4837 4ebe 3445 973d a592 a7be 44af f6bc
00000190: f38f 82bd c2ed 18be 702a 2cbe c9dc ccbd
000001a0: b1ec a2be 1045 a7be 8b9f 37be 572c 91be
000001b0: ccd2 b13d ef5b a8be 43e3 46bd a7bd 92bd
000001c0: a123 583d f389 78bd a8b7 e6bd e8c4 65bd
000001d0: 1a14 90be aa79 1bbd dfd6 eebd 45a7 4b3e
000001e0: 6ef9 ee3c e29d 7cbd 87a8 a0ba a718 f33d
000001f0: 8dde 32bd 3ce2 08be ef07 e3bd e033 903d
-0.15174659 -0.16018872 -0.01500747 -0.0007983601 -0.21671887 0.108498015 -0.13557939 0.0010734493
-0.12574348 0.20558265 0.0989583 -0.10983166 -0.01383317 -0.10698727 0.07000756 -0.14089891
0.1558946 0.23140441 -0.19550075 -0.16142482 0.07107232 -0.14246093 0.25176793 -4.3677726e-05
-0.1616597 -0.15147038 0.005063082 -0.22087267 -0.3725981 0.119044945 -0.1944434 -0.20950389
-0.13814132 0.11404386 -0.13224249 -0.21477333 0.0076658963 0.036088847 -0.26677638 0.08174058
-0.33782178 -0.12087223 0.09365934 -0.014316599 -0.09220165 -0.09931362 0.005180737 -0.09910577
-0.11194928 0.0026937053 0.016046971 -0.06483812 -0.07774237 -0.075321384 0.057754993 0.08834148
0.0590356 0.13558412 0.16261344 0.05279478 -0.11258782 0.009209757 -0.20063744 -0.01879713
-0.1215741 -0.1710483 -0.09593368 -0.42326596 -0.1996662 0.05308205 -0.10279845 -0.09387177
-0.16557018 -0.28424636 -0.24864262 -0.15207984 -0.27057076 -0.2343019 -0.020126479 0.16150829
-0.18048793 0.16926692 0.06857776 0.052999683 -0.18101576 -0.06571348 -0.042351536 -0.06383043
-0.13077603 0.1234877 0.023663424 -0.15804133 -0.271058 -0.31941155 -0.15953834 0.044585854
-0.20138276 0.07386246 -0.32729068 -0.03011287 -0.063751124 -0.14934447 -0.16813064 -0.10003049
-0.31821206 -0.32669878 -0.17931955 -0.2835414 0.086827844 -0.3288264 -0.048556577 -0.071650796
0.052768353 -0.060678434 -0.112654984 -0.056095988 -0.28140336 -0.037957825 -0.11662077 0.19888027
0.029171672 -0.061674006 -0.0012257256 0.118699364 -0.043669272 -0.13367552 -0.110854976 0.07041144

fc3.weight f4 [4, 128]
00000000: 7bde 513f dd23 9dbe e038 313e 2dad fabb
00000010: 446b d13e 698e 9bbd 989e 383e 46db ccbd
00000020: 1cf6 ca3c 595a 5fbf 27c4 03be e40a 32bf
00000030: fe3f 9c3c 0e87 8c3e 72bf 1a3f c161 723d
00000040: 5429 ea3e 0e24 92be 8f7e 5bbe 5f54 3a3f
00000050: bdb4 3ebe d459 8fbe a3cc 77be 41a3 ecbe
00000060: 663d e3be b902 3f3f 5226 4ebb a207 fb3e
00000070: e4a2 4abe 027d 1abf 2e4d fa3e 03c4 d73d
00000080: bb0d 3bbe 25c5 f9be e446 9d3b ee38 303f
00000090: f739 153f 6d63 0e3e a97e 5c3e 5d55 e5bd
000000a0: d6e7 4e3e 473e b4bd 1b40 073f 6fc5 58be
000000b0: 605b 50be 6ce8 873e ca05 11be 53e8 7ebe
000000c0: 1831 85bd ae20 46bf bfd5 083d a24c f7be
000000d0: 2fcb 66be 7956 c1bc 78de 503e b470 26bf
000000e0: 6375 953e 9800 873e 2d5b 0a3e a80e 33bf
000000f0: ce69 de3e 4f71 22be 2d4a f13e 853c 783e
00000100: dccb 2d3f 3141 aa3e ef74 c03c c878 03bf
00000110: a642 39be 5df9 98be 8b2f ccbe 7006 383f
00000120: 32f9 623e 6ff9 9d3e a0a2 b53e 95ed 853d
00000130: 3632 fb3e 6794 903b 047a 40bf daf7 f43e
00000140: bcf8 5ebf 1da9 2abf f147 0dbf 268c 473d
00000150: 5151 eebb 73b8 16bf c378 513e 3a3a 64be
00000160: 76be 2fbe 320d 2b3d aba3 aabe 9011 2ebe
00000170: aebd 123f e686 fc3e 137a fcbe bd2e a6be
00000180: 2bb2 623e 8021 23be df06 34be a167 4abc
00000190: eb88 6dbe 5209 133e 730a 86bd 0850 b43d
000001a0: 4a68 ec3e fab4 2b3e e18d 8cbe 25b1 a1be
000001b0: 2d24 10bf 92fd 20bf ff30 02bf eedc a2be
000001c0: 76f6 2b3f 867e 25be 9599 eb3c ab7c 07be
000001d0: bb1b 2bbf 7f40 acbc 07fa 9b3e a97b 9e3e
000001e0: a935 fc3e 6305 7d3d 1bfe c0be 344f c43e
000001f0: 6f81 5fbc 8538 8e3e 400f 1f3f 7cbc 063e
00000200: 189e b6bd fb33 f6bd 67cf 95bd 4318 bdbe
00000210: 0567 a63e 0c9a 323f 9d65 1a3d 90e8 f83d
00000220: fe8b 563f 058f b8bd 2765 2bbe 645f 8dbd
00000230: dc6d 98bd 08ab 143f 5ed4 02bf e3a5 e2be
00000240: 943f 07bf 01f2 c93e bbc6 883e 0747 81be
00000250: ec31 bbbd d809 0abe d8cb 1d3f efe1 ff3e
00000260: 0d87 00be 7189 233e 1899 bebd 6adc 0e3f
00000270: d6fd 0ebe 3da6 bbbd 9554 f23e 37ec 25be
00000280: 0e0c 27be 4bb4 ba3e 23fe 56bd 1c54 f53d
00000290: 3b69 b83d 99a7 923d 7317 073f 91d6 babd
000002a0: 2529 f23e a2a0 5e3e ccf5 d7bc db1a 74be
000002b0: 1735 a4be ebde 693e f055 043f db62 2dbe
000002c0: 8e90 05bf f4b4 fdbe d3fa af3d 8948 96bd
000002d0: 2682 b8be b900 1f3d 0e74 f3be 5a2c 133e
000002e0: 61fe 4abe d620 e03e 2c82 503d 0fe5 dc3c
000002f0: f5f4 86ba 5ca4 7abd d048 10be b0f8 febc
00000300: 5e30 103e c228 223f b81f 93be e679 b33e
00000310: 9891 193e 0fe4 003f 14d3 c6be 4927 053e
00000320: e54d 70bc d8b8 4dbe 37e0 54bf 582b c5be
00000330: 35c1 d23e 48a0 afbe 718f eb3e e006 eb3d
00000340: d1c0 30be 6901 9abe 994b 17be ed20 42bd
00000350: 8306 a53e 2c92 a0bd adc0 debd 1bf4 1b3e
00000360: 4986 8cbe 243c 2f3f e42a 1c3e 1e82 07be
00000370: e70e abbd 8c14 033f 8759 233e 2a41 e0be
00000380: 3f88 debe 7e7a b1be 5197 b5bd 9ecc 26bf
00000390: b79f 48be 160c 92be ecb1 3d3f 82b8 383f
000003a0: bd0c 3d3f 8683 17be 4f41 f83d 3977 63be
000003b0: 2510 8ebe 2963 f0bc 6396 7dbe a663 f43e
000003c0: 8bba 6cbd ee6a 66be dc0f 86be 6760 543f
000003d0: 1cfc dfbd 3b3e 7f3e ceff 76be d8ae e33d
000003e0: b4f0 bb3d 835b 533b b0c9 113f 5345 bebe
000003f0: 6dae 813d 7c5f 5bbe 1bf2 d2bc ae23 b4be
0.81980103 -0.30691424 0.17306852 -0.0076500387 0.4090215 -0.07595522 0.18029249 -0.100027606
0.024775557 -0.87247235 -0.12867795 -0.6954787 0.019073483 0.2744679 0.6044837 0.059175257
0.45734656 -0.28543133 -0.21434997 0.7278499 -0.18623634 -0.2799822 -0.24199156 -0.46218303
-0.4438278 0.7461353 -0.0031455946 0.4902926 -0.197887 -0.60346997 0.48887008 0.10535433
-0.18266957 -0.48783222 0.0047997106 0.6883687 0.5829157 0.13905115 0.21532692 -0.111979224
0.20205626 -0.08800941 0.5283219 -0.21169065 -0.20347357 0.2654451 -0.14162365 -0.24893312
-0.065035045 -0.77393615 0.03340697 -0.48300654 -0.22538446 -0.023600804 0.20397365 -0.6501572
0.2919112 0.2636764 0.13511343 -0.6994424 0.43440098 -0.15863536 0.47126904 0.24241836
0.6788919 0.33252862 0.023493258 -0.5135617 -0.1809183 -0.2987775 -0.39880022 0.7188482
0.22165373 0.30854365 0.35475636 0.06539456 0.49061745 0.004412222 -0.7518618 0.47845346
-0.8709829 -0.66664296 -0.551879 0.04871764 -0.0072728773 -0.588752 0.20456223 -0.22287837
-0.17162499 0.04176063 -0.33327994 -0.16998887 0.5732068 0.4932167 -0.49311885 -0.32457533
0.22138278 -0.15930748 -0.17580746 -0.012353809 -0.23196761 0.14359024 -0.06544962 0.08804327
0.46173316 0.16768256 -0.27451995 -0.31580463 -0.563052 -0.6288692 -0.5085601 -0.3180918
0.67172945 -0.16161546 0.028759757 -0.13231151 -0.6683919 -0.021026848 0.30464193 0.3095372
0.4925969 0.061772715 -0.37693867 0.38341677 -0.013641699 0.27777496 0.62132645 0.13157839
-0.08916873 -0.12021633 -0.073149495 -0.36932573 0.32500473 0.69766307 0.037694562 0.12153733
0.8380736 -0.09011654 -0.16737805 -0.0690296 -0.07442829 0.5807347 -0.51105297 -0.44267187
-0.5283139 0.39442447 0.2671412 -0.25249502 -0.09140381 -0.13480318 0.61639166 0.4997706
-0.12551518 0.15970398 -0.09306544 0.55805075 -0.13964018 -0.09162567 0.47330156 -0.1620339
-0.16313192 0.36465678 -0.052488457 0.11978933 0.09004446 0.07160873 0.52770156 -0.091229565
0.47297016 0.21740964 -0.026362322 -0.2383837 -0.32071754 0.22838943 0.5169363 -0.16932242
-0.521737 -0.4955212 0.08592763 -0.07338054 -0.36036795 0.03881905 -0.4754948 0.14372388
-0.198236 0.43775052 0.05090539 0.026964692 -0.0010296392 -0.0611919 -0.14090276 -0.031124443
0.1408095 0.6334344 -0.28735137 0.3505394 0.14996946 0.5034799 -0.38832915 0.13003267
-0.014667009 -0.20090044 -0.83154625 -0.3850963 0.4116303 -0.34301972 0.46007875 0.11475921
-0.17261054 -0.300792 -0.14774932 -0.04739468 0.3223153 -0.0784038 -0.10876594 0.15229838
-0.274462 0.6845114 0.15250736 -0.1323323 -0.08352452 0.5120323 0.1595212 -0.43799716
-0.43463323 -0.34663767 -0.08866752 -0.6515597 -0.19592176 -0.28524846 0.7409961 0.72156537
0.7384756 -0.14796266 0.121218316 -0.22213449 -0.27746692 -0.029344158 -0.24764399 0.47732276
-0.05779509 -0.22501728 -0.26183975 0.829596 -0.10936758 0.24926083 -0.24121019 0.11117333
0.0917677 0.003225059 0.56948376 -0.37162265 0.06332097 -0.21423143 -0.02575021 -0.3518347

fc3.bias f4 [4]
00000000: 9a06 5abd c263 19b9 a8c9 10bc 7ef4 8cbc
-0.053228952 -0.0001462838 -0.008837141 -0.017206427

b1.weight f4 [128]
00000000: 091c 8b3f f5a5 873f 63c9 223f 2131 883f
00000010: d961 5c3f aec2 653f 89fe 543f 3df2 7a3f
00000020: 2b5e ad3f 0c13 8b3f 7dda 1e3f f13a 393f
00000030: c326 643f c870 343f 6080 3a3f 7c5e 8f3f
00000040: 2564 383f 83f7 d23e 1814 a63f be18 f23e
00000050: 2141 443f 8ef1 8e3f 54ac 6b3f eeb4 893f
00000060: 266f 4c3f 8f33 853f 7401 3e3f c670 703f
00000070: 8002 683f f27e 433f 37af 813f 6b23 053f
00000080: 03f6 613f b8c6 683f 9d78 8d3f 5cd2 3d3f
00000090: 9399 543f 7a51 283f c36e 893f 06a2 883f
000000a0: 7e48 253f 7491 2c3f f0c6 5a3f 9c59 903f
000000b0: dbf8 b33f 4554 753f 98f0 343f fb67 823f
000000c0: e9f3 9a3f 8c25 333f 4cba 1d3f bef3 503f
000000d0: ddcd a13f b683 343f 467d 2a3f f094 183f
000000e0: 6aea 843f fadc 683f ce88 183f 6d4c 253f
000000f0: 8dcf 793f e702 423f 53e8 383f 3e03 303f
00000100: 3a5b 623f a4a2 383f 7553 2b3f 01da 5a3f
00000110: 2fea 7b3f 0f45 893f 4f0e 033f 6585 163f
00000120: d332 533f 0288 3a3f f79e 803f 83fb e33e
00000130: dc2e 693f e6c8 e03e dd75 6e3f a0ef 563f
00000140: 4505 203f c1d0 703f 7a39 223f 32d7 583f
00000150: d616 9f3f 2bf4 3d3f 408c 213f 9647 493f
00000160: 8afd 443f 8765 053f 3842 993f 2875 303f
00000170: da78 743f b7c5 5c3f 09d4 523f dc24 2e3f
00000180: f126 613f 246a 903f 1c21 9b3f eb53 913f
00000190: 7dab 483f 7a0b 843f 5db9 923f 9729 533f
000001a0: 48e7 843f 201f 483f 7cbd 953f e5b0 4f3f
000001b0: 981c 923f ee53 be3e 5082 363f 1d81 653f
000001c0: 3ce7 793f e053 963f f13e 203f d87e 9e3f
000001d0: cf24 9b3f 1075 a03f 9652 983f 57f3 ab3f
000001e0: 552c 553f 051b 983f 0d08 203f 77f7 353f
000001f0: 252d a43f ee5b 6c3f 4c30 823f 407f b43f
1.0867931 1.0597521 0.6358854 1.0639993 0.86086804 0.8975018 0.8320089 0.98025876
1.3544363 1.0865188 0.62052137 0.7235556 0.89121646 0.7048459 0.72852135 1.1200709
0.7202781 0.4120446 1.2974882 0.47284502 0.7666188 1.1167467 0.92059827 1.075834
0.798571 1.040636 0.7422097 0.9392208 0.90628815 0.7636558 1.0131596 0.5200717
0.8826601 0.9092822 1.1052433 0.7414911 0.83046836 0.65749323 1.0736927 1.0674446
0.6456374 0.67409444 0.85459805 1.1277347 1.406032 0.9583171 0.70679617 1.0187982
1.2105685 0.69979167 0.6161239 0.8162192 1.264095 0.70513475 0.665974 0.5960226
1.0384037 0.90962183 0.5958375 0.6456974 0.9758232 0.7578568 0.722295 0.6875495
0.8842045 0.7212317 0.6692422 0.854889 0.9840421 1.07242 0.5119371 0.58797294
0.82499427 0.7286378 1.0048512 0.44527826 0.91087127 0.43903273 0.93148595 0.8395939
0.6250804 0.94068533 0.6336895 0.8470336 1.2428844 0.74200696 0.6310463 0.78624856
0.7694937 0.52108043 1.1973333 0.68928766 0.95496905 0.8623919 0.8235479 0.6802499
0.87950045 1.1282392 1.2119479 1.1353735 0.7838667 1.0316002 1.1462818 0.82485336
1.0383081 0.78172493 1.1698451 0.81129295 1.1414976 0.37173408 0.7129259 0.89650136
0.9761846 1.1744347 0.6259604 1.238246 1.2120608 1.2535725 1.1900203 1.3433636
0.8327077 1.1883246 0.62512285 0.71080726 1.2826277 0.92327774 1.0170989 1.4101334

b1.bias f4 [128]
00000000: 7e86 0f3e 529c e3bd cef1 953d b730 593d
00000010: 7a49 723e aca8 40be a79d fabd 092e e9bd
00000020: 5087 b53e 9ee4 5f3d 9b55 47be 3376 7c3d
00000030: ac98 8a3d 7d41 71bd 8c20 7f3d f72e 843e
00000040: c50c 5cbe 6e05 71be 7489 433e 1e1a 033d
00000050: 8468 bebc 7789 a13e 0d0a c43c e8d2 293e
00000060: 7947 ad3d ca33 cf3d 6cac 4f3d e0d0 f73d
00000070: 7936 1bbe 9800 8c3c 0da2 02bd bad7 9bbc
00000080: 3712 0b3e bc56 a5bc 765a 1a3e 264e 2abd
00000090: faf0 ddbd 9a98 04bd 313e 78bd ae98 7bbd
000000a0: 4dad 71bd 6a34 393c 8d0c 84bd 8182 8cbd
000000b0: 9dfe 2dbe 5926 8b3e 29bf c63b c953 e1bd
000000c0: dc0e 843b a019 bdbd 8fd6 a2be 1b2f e83d
000000d0: 072e 643e aeea 14bc 812d 813e c1f9 4abd
000000e0: 1f2d fa3c acfe 773c c9f1 0f3c bb2c 1a3d
000000f0: 7438 3cbe 8bba df3c 59e9 ef3d 4f3f 103e
00000100: 3585 98bc 478b 9ebd 5722 f43d a2f9 f3bd
00000110: 00bb 423d 55de 0ebf d289 e7be 2d5a 823e
00000120: 6842 57be 5d76 a93e 3767 ce3d 09a0 93be
00000130: ccaa ef3d 380c 4a3e 24c2 8fbd 85a9 8f3d
00000140: 5a84 4abe db1c 103e 811d 3abe 6892 983d
00000150: 14cb 853d 4ec8 a6bd 8fbe 3ebd 0a4b a33d
00000160: 2d67 183d 54c3 8ebd 7831 d63d bab0 423e
00000170: 0229 b2bd 8db6 853c 936d 633d 1d7b 823d
00000180: b8e3 333d 2d31 9d3e f453 13ba 9fe4 28bc
00000190: 0029 273e 65d9 b13d a7a4 94bc 28ce 13be
000001a0: 7319 ccbd ea99 75bc 3f9b 9a3d f081 22bd
000001b0: e999 2e3e 1f7f de3c a870 c73b a0c5 b2bd
000001c0: 98e1 293e a356 42be 5b20 e8bc caa5 363e
000001d0: 6df9 a2bd 42d8 183f 0ba6 973e 01c0 15be
000001e0: 8d2d e13d 5e59 ba3e 134a 16be 4d7c c6bd
000001f0: 9a3a 04bc 4b62 8cbd bc07 823d 14f7 e03e
0.14016148 -0.111138 0.07321511 0.053024974 0.23660842 -0.18814343 -0.12237101 -0.11385734
0.35454798 0.054661386 -0.1946625 0.06163616 0.06767401 -0.058900345 0.0622869 0.2581708
-0.21489246 -0.23537228 0.19095403 0.03200733 -0.023243196 0.3155019 0.023930574 0.1658436
0.08460898 0.101173 0.050701544 0.121003866 -0.15157498 0.017090127 -0.031892825 -0.019023765
0.13581167 -0.02018296 0.1507357 -0.041578434 -0.10836978 -0.032372095 -0.060606185 -0.061424904
-0.059003163 0.011304 -0.06447706 -0.06860829 -0.16991659 0.27177694 0.0060652685 -0.11002309
0.0040300917 -0.09233403 -0.3180432 0.1133711 0.22283183 -0.009089155 0.2523003 -0.04955459
0.030539094 0.015136402 0.008785673 0.037640315 -0.1838091 0.02731063 0.117144294 0.1408665
-0.018618206 -0.07741409 0.11920612 -0.11912848 0.04754162 -0.55808 -0.45222336 0.25459424
-0.21021426 0.33098117 0.100782804 -0.28833035 0.11702499 0.19731224 -0.07019451 0.07014755
-0.1977705 0.14073507 -0.18175317 0.074498 0.06532875 -0.08143674 -0.04656845 0.07973297
0.03720777 -0.0697085 0.10458654 0.19012728 -0.08699228 0.016322399 0.05552442 0.06371138
0.04391834 0.3070158 -0.0005620115 -0.010308414 0.16324234 0.08684043 -0.018144919 -0.14434111
-0.099657916 -0.014990309 0.07549142 -0.0396747 0.170509 0.027160225 0.0060864277 -0.087291
0.16589963 -0.18978362 -0.02833574 0.17836681 -0.079577304 0.59704983 0.29618868 -0.14624025
0.10995016 0.36396307 -0.14676695 -0.09691677 -0.008070612 -0.068546854 0.063491315 0.43938506

b1.running_mean f4 [128]
00000000: 63fd e43d edd0 863d bd4a 173d 2123 633f
00000010: 3d64 023f c940 533e bd93 503e 8f0a ad3e
00000020: 78b4 1c3f bf76 f93d ad55 563f c41d 903c
00000030: 506e 9f3d 4a46 213f 3253 a63e 58b0 0c3f
00000040: 1ef8 ab3d e6c0 043d e07d 6c3f ffaa 643e
00000050: 5a7e 9d3e 1fec 133f 06be 803e 1048 8e3e
00000060: 510d c83e 27a1 393e 20a2 173d 5ed3 843e
00000070: c71e 773d bec2 8c3f 7067 0c3d e779 f33d
00000080: f89d 013f dded 133e 7410 6d3d f241 213e
00000090: 5851 233e 78ce d13d 3e4b 583e bc0b 8a3f
000000a0: e976 293e 09e7 f53d 8016 223e 987e 813d
000000b0: f55e 3f3e f661 263e fc8c e23d edd3 693e
000000c0: 6b47 da3e 6e1f e33d 9aca 663a c093 273f
000000d0: 3852 5f3e 6796 b33e 7e9f 083e 5b43 e33e
000000e0: 97be 0e3e 5544 353e 64c5 0c3f 97c6 cc3e
000000f0: 33f2 7e3e c21b 0f3f 71d9 3a3f b3a9 3e3f
00000100: 662e 2b3e 85c0 c63d 8dfb eb3d 68f7 073e
00000110: b0d8 363d a6cf d23d 9981 353e ebf4 0a3e
00000120: adae e53e 565a a63d bf91 853e 1784 ba3d
00000130: c17f 423e 18bf df3d 346e 0b3e f14b 873d
00000140: a685 883e f128 be3e 9c7d 843d 891d 823d
00000150: f89a ae3e 7db6 be3c abab 793d 2aad a03e
00000160: cc3e 883e 0cbf 833c 356f 053f ee67 e63d
00000170: a10a 263e 8716 373e 803e c53d 15c3 bc3e
00000180: 0230 693e 3716 593e 11b5 003f 202e 863d
00000190: 54b5 833e b5fc 4a3e 4676 923f 6be7 3b3e
000001a0: 0ec2 eb3d 943c 223d f1a0 943f a2f1 953e
000001b0: b473 e03d 662f a639 7c64 213f 3fe1 1d3e
000001c0: eec4 513e 4a60 523e f487 b53a d181 c33e
000001d0: 27c9 4d3e c037 743f b310 2a3f 258f 443f
000001e0: 11ef 923e 74e9 913f 198b d63d 74e0 8e3d
000001f0: 82d3 d33e 45ba 213e 5733 0d3f 2300 f63e
0.11181142 0.06582818 0.03693651 0.8872548 0.509342 0.20630182 0.20368858 0.33797118
0.61212873 0.12180852 0.8372448 0.017592318 0.07784712 0.6299788 0.32485348 0.5495658
0.08396934 0.032410525 0.9237957 0.22330855 0.3076046 0.5778217 0.25144976 0.27789354
0.3907266 0.18127881 0.03701985 0.2594251 0.060332086 1.0996931 0.034278333 0.118884854
0.50631666 0.14446206 0.05787702 0.15747812 0.15948999 0.10244459 0.21122453 1.0784831
0.16549267 0.12006957 0.15828896 0.06322974 0.18688567 0.16248307 0.11062047 0.2283475
0.42632613 0.11089979 0.00088039937 0.65459824 0.21808708 0.35075685 0.13342091 0.44387326
0.13939892 0.17701848 0.54988694 0.39995262 0.24897079 0.5590173 0.7298804 0.7447769
0.16716918 0.09704689 0.11522589 0.13277972 0.044640243 0.10293512 0.17725219 0.13569991
0.4485983 0.08122699 0.26087758 0.091072254 0.18994047 0.1092512 0.13616258 0.066062815
0.26664466 0.3714061 0.064692706 0.0635329 0.34102607 0.023280377 0.06095473 0.31382114
0.2661041 0.01608231 0.52122813 0.11250292 0.16214992 0.17879687 0.096310616 0.36867586
0.2277222 0.2119988 0.50276285 0.065517664 0.2572428 0.19822963 1.1442344 0.18349998
0.11511622 0.039608553 1.1611615 0.29285914 0.109595686 0.00031697302 0.6304395 0.15417956
0.20485279 0.20544544 0.0013849721 0.3818498 0.20096265 0.9539757 0.6643173 0.7678092
0.28698018 1.1399369 0.104757495 0.06976405 0.41372305 0.15793712 0.55156463 0.4804698

b1.running_var f4 [128]
00000000: 3aa8 953d b662 443d b9a5 2b3d 7c1c 1e3f
00000010: 4c82 df3e c1b4 0f3e d210 013e e1c3 ee3d
00000020: 741d e03e 7ed6 d33d 6736 b03e 8a01 0c3c
00000030: 494f 3f3d 71ff 193f e832 0e3e 34a0 b93e
00000040: 838e 3a3d 611c 9e3c 0a5a 093f aacd 3b3e
00000050: 9bd0 173e 3024 763e f614 3a3e 1349 0d3e
00000060: 8aff 9a3e a099 d03d 0b4f 853c 2ef8 353e
00000070: de27 c03c 1c0e 7d3f b9d8 893c 6168 533d
00000080: 3f62 0f3f 9358 4d3d 4288 c73c 341c ca3d
00000090: 6a04 fa3d ef06 423d 5305 8b3d d08e 5c3f
000000a0: cda8 c43d 8532 b93d b651 d63d 86db 2a3d
000000b0: 5b40 073e b3f8 193e 84d1 8c3d 439e ec3d
000000c0: 06f7 993e 7720 833d b429 a739 46c8 133f
000000d0: 1f2d 1f3e acf0 5c3e 7481 983d f4fd 483e
000000e0: 7106 aa3d 823b d53d a707 133f 14bf 173e
000000f0: d5ef 0a3e 081b a83e 9f4f b83e 4a27 f13e
00000100: 7366 c23d 4b3f 723d 8f68 433d 399d 9b3d
00000110: b4a5 053d d8d3 9c3d 45d0 b83d c3e3 b23d
00000120: 11b5 763e fc1e 143d 5aa8 413e adb9 553d
00000130: 53a0 fc3d 7824 563d d5f6 9f3d 0e41 343d
00000140: a83e 7e3e 3c12 913e 0709 123d 45e8 363d
00000150: 743d 133e 2380 333c 8a06 ed3c a177 723e
00000160: 475d 273e c342 123c 0765 583e 81b3 933d
00000170: 7b2c c43d 7c74 f83d 45c6 8f3d 1e05 993e
00000180: 5942 e33d 3723 163e 39d1 c13e 890f 1a3d
00000190: 0e85 4e3e 19e4 fa3d d135 1a3f 0df3 083e
000001a0: 17f9 9c3d 8a16 d73c c50d a33f c9ce 313e
000001b0: 119e 8c3d b17f f238 ec4a a23e 21a7 b63d
000001c0: a1fc ce3d f5fa ea3d cc62 193a 74f2 123e
000001d0: 43c5 df3d 98b9 643f 3c54 143f a600 933e
000001e0: a2e4 5a3e d711 5d3f 1e25 b73d ec80 153d
000001f0: d060 b93e b5af 8e3d 900e 0b3f 1bc0 573e
0.07307477 0.0479457 0.041906092 0.61762214 0.43654096 0.14033796 0.12604073 0.11658455
0.4377247 0.103436455 0.34416506 0.008545289 0.04670647 0.601554 0.13886607 0.36255038
0.045546066 0.019300641 0.53653014 0.18340173 0.1482567 0.24037242 0.18172058 0.13797407
0.30273086 0.10185552 0.016273042 0.17770454 0.02345651 0.98849654 0.016826974 0.051613215
0.56009287 0.0501333 0.024356965 0.098686606 0.12207873 0.047369894 0.06788125 0.86155415
0.09602509 0.09042839 0.10464804 0.04171326 0.13208143 0.15036277 0.068758994 0.115536235
0.30071276 0.064026766 0.00031883793 0.5772747 0.15544556 0.21576184 0.07446566 0.19628125
0.0830201 0.10411741 0.5743355 0.14818984 0.13568051 0.32833123 0.35998246 0.47100288
0.09492197 0.059142392 0.047707137 0.07598347 0.03262873 0.076575935 0.09024099 0.08734848
0.24092509 0.03616236 0.18911877 0.052179027 0.12335267 0.052280873 0.07810751 0.044007353
0.24828589 0.28334224 0.03565314 0.044655103 0.14378911 0.010955843 0.028933782 0.23678447
0.16344176 0.00892705 0.21132289 0.07211972 0.095787965 0.12131593 0.07020239 0.29886717
0.11096639 0.14661871 0.37854937 0.03761247 0.20167944 0.122505374 0.6023837 0.13373967
0.076646976 0.026255865 1.2738577 0.17364039 0.06866086 0.000115632436 0.31697786 0.08918596
0.10106779 0.114736475 0.00058512087 0.14350301 0.109262966 0.89345694 0.5794103 0.28711432
0.21376279 0.86355346 0.089426264 0.036499903 0.36206675 0.06967107 0.54319096 0.21069376
